Code/Data/Model/nn.pt (torch, 21871 bytes, 5 tensors)

weight f4 [64, 8]
000000 68 23 17 b9 26 d2 27 b8 ea 4d 33 b9 6e 21 83 b8
       -0.00014413672 -4.001162e-05 -0.00017099796 -6.2527935e-05
000010 26 bc 8d 37 a3 ca 44 39 08 2c 45 39 8b 89 9f 38
       1.6896123e-05 0.00018767505 0.00018803787 7.60733e-05
000020 b4 39 0c 3c 4b 25 88 be dd 93 57 3d 52 34 f3 3d
       0.008558679 -0.26590952 0.052631248 0.11875214
000030 d8 1f f4 bf 4b fb b2 3d 86 6f e0 bd 38 df 12 3f
       -1.9072218 0.087393366 -0.109587714 0.57371855
000040 5c ed bb b8 75 a0 ca b9 2a 5e 33 b8 50 19 c6 38
       -8.9610665e-05 -0.00038647992 -4.2764623e-05 9.4460906e-05
000050 0f 3e 35 39 ba 89 35 39 4e f1 33 39 10 09 82 b8
       0.00017284624 0.00017312812 0.00017160663 -6.200571e-05
000060 bf 4b 78 39 10 7d 9f b7 67 39 87 38 f6 51 13 b9
       0.0002367934 -1.9012514e-05 6.447994e-05 -0.00014049545
000070 f4 59 2e 39 a2 96 57 b8 78 70 ab 37 34 21 76 b8
       0.00016627443 -5.1400282e-05 2.043716e-05 -5.8681893e-05
000080 33 e8 95 39 94 50 48 38 6b 99 81 b8 78 eb 0f 38
       0.00028592497 4.775876e-05 -6.179776e-05 3.4313154e-05
000090 2e bc 91 b9 28 dc 74 b9 73 49 52 38 f1 a6 a4 b8
       -0.0002779676 -0.00023351668 5.0136307e-05 -7.851225e-05
0000a0 d5 df 00 38 05 5b a3 b8 be 2e b8 b8 ba 75 47 38
       3.0726038e-05 -7.7893994e-05 -8.78251e-05 4.755494e-05
0000b0 a8 00 34 39 f0 1f b0 b9 2b 33 2c b9 1c 18 67 b8
       0.00017166382 -0.0003359313 -0.0001642226 -5.5097145e-05
0000c0 1e e3 4e 38 1c f9 c7 38 48 ee 49 38 56 31 1d b9
       4.9325747e-05 9.53546e-05 4.814405e-05 -0.00014991066
0000d0 b0 f2 33 b9 54 dc ea b8 59 b1 19 b9 22 6c 29 39
       -0.00017161178 -0.00011199029 -0.00014657284 0.00016157379
0000e0 a6 5e 8e bd e5 d2 58 3d 34 a9 b7 be a1 ec 27 be
       -0.069516465 0.0529355 -0.3587128 -0.1639886
0000f0 60 59 80 bd d9 67 c7 be a8 1a 87 be 41 95 96 be
       -0.06267047 -0.38946417 -0.26387525 -0.29410747
000100 34 03 29 b7 1c 14 2d b7 e0 e8 20 39 13 13 2a b9
       -1.0073931e-05 -1.0316286e-05 0.00015345542 -0.00016219569
000110 5b 7e df b8 8e 17 40 38 8e 7a 53 b8 b0 8e 83 38
       -0.00010657004 4.5798304e-05 -5.0420458e-05 6.2731444e-05
000120 19 f1 23 38 57 8d 4d b8 36 d9 cc b6 9c f5 f2 38
       3.9086768e-05 -4.900744e-05 -6.1049604e-06 0.000115852075
000130 98 d6 af b7 da a0 92 b8 d9 18 e7 38 1a 0e d6 38
       -2.0961554e-05 -6.9917834e-05 0.000110195666 0.00010206942
000140 f0 13 07 39 b4 2a 27 39 48 65 73 39 46 8a 5e 39
       0.0001288203 0.00015942269 0.00023212016 0.0002122308
000150 f6 ee 97 b9 c6 2b 71 39 e1 4a 24 38 2e a6 f6 b7
       -0.00028979004 0.00022999858 3.9170383e-05 -2.9402869e-05
000160 c8 8b 28 38 f6 7f 09 38 62 fb 14 38 54 81 05 b9
       4.0184503e-05 3.278252e-05 3.552007e-05 -0.00012732047
000170 83 f4 84 39 bf a4 b0 38 f0 61 ed b7 6a e9 d8 b8
       0.00025359177 8.42302e-05 -2.8298207e-05 -0.000103431594
000180 53 44 46 b9 e7 d3 00 b8 58 23 43 b8 17 9b e5 38
       -0.00018908204 -3.0714928e-05 -4.652454e-05 0.00010948459
000190 38 33 1a b9 58 c7 f8 37 cc ba 7d 38 66 21 03 b8
       -0.00014705665 2.965673e-05 6.049387e-05 -3.126394e-05
0001a0 03 dc 91 38 ac d7 84 37 c8 60 63 b8 30 57 97 b7
       6.955119e-05 1.5836056e-05 -5.4211152e-05 -1.8041203e-05
0001b0 36 ee 94 38 18 36 57 b9 2e 96 53 b8 ca 6e 9a b6
       7.10156e-05 -0.0002052415 -5.0446186e-05 -4.602455e-06
0001c0 a0 04 50 b8 24 4b a8 b7 4d bd b9 b8 9b 91 36 b9
       -4.9595372e-05 -2.006215e-05 -8.8567474e-05 -0.00017411115
0001d0 6c 36 23 b9 10 89 d0 b7 81 5b 35 b8 f0 1d 2b 39
       -0.00015565165 -2.4859357e-05 -4.3238982e-05 0.00016318983
0001e0 e4 0b 20 39 f2 46 1a 39 dc 77 10 38 71 49 82 38
       0.00015263219 0.00014713014 3.4443903e-05 6.2125626e-05
0001f0 3c 1b 29 37 ef 3b 84 39 b9 38 ce b8 78 7b ff b8
       1.0079526e-05 0.00025221656 -9.833411e-05 -0.000121823454
000200 ae 0c a7 38 b5 a9 1b b9 68 9c 96 38 ff 5e db b7
       7.965542e-05 -0.00014845173 7.18169e-05 -2.615107e-05
000210 b0 9a de b8 24 45 0c 38 ab c3 5a 39 d6 f6 28 39
       -0.00010614598 3.3442993e-05 0.00020862992 0.00016113682
000220 a0 e3 1e 38 f0 ad 2b b9 85 fb 91 b8 46 00 64 b9
       3.7882128e-05 -0.00016372628 -6.960988e-05 -0.00021743876
000230 10 00 4c 36 c8 5e 0c b8 e8 98 41 b7 72 17 03 b9
       3.0398405e-06 -3.3466873e-05 -1.1539298e-05 -0.00012501868
000240 d7 29 ef 37 dc fc 1f b8 33 45 2d b9 19 f2 4b 38
       2.8510503e-05 -3.8144048e-05 -0.00016524344 4.8624443e-05
000250 a2 b4 85 39 b0 5d 8f b8 b7 49 27 b8 0d 88 25 b8
       0.0002550232 -6.836222e-05 -3.9884555e-05 -3.9465773e-05
000260 a0 73 03 37 f5 19 65 b8 70 d0 f2 39 80 14 4a 36
       7.8351295e-06 -5.462203e-05 0.00046313135 3.0112278e-06
000270 8c 23 18 b9 98 68 4b 39 a9 b6 0a b9 49 e4 02 39
       -0.00014509092 0.00019398553 -0.00013228752 0.00012482809
000280 46 98 2a 3e d1 cf 7b be 87 91 c0 3e f3 60 2f be
       0.1665965 -0.24590994 0.3761103 -0.17126827
000290 88 63 fa 3d 99 80 99 3e 81 35 6a be ca 79 50 bf
       0.12226015 0.29980925 -0.22871973 -0.81435835
0002a0 c0 54 ee 3a 32 b1 d3 39 ef 1a d4 39 a4 7c 7c ba
       0.0018183216 0.00040377077 0.00040455858 -0.000963161
0002b0 04 d4 c5 bf 24 bc 77 b8 db 48 34 bb 37 6e ae ba
       -1.5455327 -5.906461e-05 -0.0027509246 -0.0013307993
0002c0 1b 68 3d 39 e6 4d bf b8 f6 06 39 b9 79 1a 73 38
       0.00018063227 -9.1220994e-05 -0.00017645568 5.796037e-05
0002d0 6e 30 83 b8 f4 68 3e 37 58 26 5c 39 6d 79 9e b8
       -6.2555875e-05 1.1349319e-05 0.00020995119 -7.5566444e-05
0002e0 e4 92 0e b9 44 12 8a b9 db f0 fb b8 9e 80 fc b8
       -0.00013596896 -0.0002633502 -0.000120134755 -0.00012040253
0002f0 fc de d4 b8 4a dc a3 38 fa c9 4e b8 63 25 32 39
       -0.00010150482 7.813478e-05 -4.9302333e-05 0.0001698933
000300 70 89 13 be a6 a5 65 3b 83 b7 38 3e f7 7a dc 3d
       -0.14407897 0.003504136 0.18038754 0.10765641
000310 c6 01 df 3e 7f c0 34 3e ff 2d 60 3e b9 c0 d1 3c
       0.4355604 0.17651556 0.21892546 0.025604593
000320 dd 65 9f 38 54 9c 00 b9 e0 3a 12 39 54 50 ce 38
       7.600684e-05 -0.00012265268 0.00013945578 9.837808e-05
000330 4e 34 ff b8 9a 91 ac 38 cd f5 eb b8 20 a4 c2 37
       -0.0001216909 8.2287195e-05 -0.00011251457 2.3203029e-05
000340 5c 99 19 b8 de 87 bd 36 e2 35 44 b9 64 9f a1 b7
       -3.662087e-05 5.648456e-06 -0.0001871209 -1.9266918e-05
000350 ee 1e 8d b9 6b 47 72 39 00 fe e1 35 99 b7 0f b9
       -0.0002691666 0.00023105524 1.683773e-06 -0.00013705938
000360 eb bb 0f 39 54 06 49 39 d6 0b 3d 38 b7 17 c8 38
       0.00013707548 0.00019171211 4.5072135e-05 9.5411604e-05
000370 98 0f 44 b7 c2 20 df 38 4e 2d 90 38 70 ba 2c b8
       -1.1686141e-05 0.0001063957 6.874894e-05 -4.118163e-05
000380 8e b4 1e 39 50 8d 32 39 a7 95 66 b9 ee c6 bd 38
       0.00015135316 0.00017028046 -0.00021990259 9.049276e-05
000390 b5 90 03 b9 50 ea 1a b9 93 c5 b8 37 37 e5 31 39
       -0.00012547041 -0.00014773873 2.2026512e-05 0.00016965425
0003a0 98 f9 bd 3e 7e c1 d8 3e e6 91 d3 bc 54 f4 24 bd
       0.37104487 0.42335123 -0.025826406 -0.040272072
0003b0 3d fc 35 bf eb f7 d2 3d b5 88 2b 3e 0f f9 79 be
       -0.7108801 0.10301193 0.16751368 -0.24411415
0003c0 5f 62 70 39 24 f0 f2 b8 20 be 51 b6 56 2f cb b8
       0.0002292483 -0.00011584189 -3.1254094e-06 -9.688611e-05
0003d0 08 8c 83 b8 b8 05 06 37 00 1f ba 38 2c 92 5b b9
       -6.2726496e-05 7.988354e-06 8.874945e-05 -0.00020939921
0003e0 56 1b 73 b8 3e 16 01 b9 98 e1 6c 38 56 f4 95 b7
       -5.7961173e-05 -0.00012310685 5.6476885e-05 -1.7875962e-05
0003f0 f8 92 b7 39 ea 8d 43 b9 64 6a 4e b8 82 9d 5a b9
       0.0003501398 -0.00018649516 -4.921331e-05 -0.00020848776

bias f4 [64]
000000 52 dd d4 b8 2b 1b de bd 48 ea 82 b8 2a 59 20 b9
       -0.00010150172 -0.10845026 -6.242521e-05 -0.00015292005
000010 a0 60 0d 39 10 05 31 b7 72 b2 55 39 7d aa 96 be
       0.00013482803 -1.0551201e-05 0.00020379739 -0.29426947
000020 2c 63 3f b9 63 e2 83 b8 a6 53 c0 b8 82 27 34 39
       -0.00018252124 -6.2887346e-05 -9.170854e-05 0.00017180856
000030 d4 58 b9 b8 10 b1 df 37 28 a8 0f 38 84 43 7c b8
       -8.838033e-05 2.6666123e-05 3.4250465e-05 -6.014436e-05
000040 62 7b 49 b9 54 1f d0 38 11 3d 57 b9 2d 1d 62 38
       -0.00019214817 9.924048e-05 -0.00020526747 5.390977e-05
000050 49 49 f6 bd a5 b6 40 bf 6b 69 d7 38 8c 75 bd b8
       -0.12025697 -0.75278693 0.000102716345 -9.034117e-05
000060 b0 4c a6 39 e6 ef ab 38 3a 0f ad b8 52 ee 34 39
       0.00031719124 8.1986e-05 -8.252119e-05 0.00017254919
000070 d2 53 2b 39 67 3b 9a be d2 ee 94 b8 88 5a 1b 37
       0.00016339056 -0.30123445 -7.101674e-05 9.259798e-06
000080 c7 c8 3e 39 65 24 5a b9 da 0a 48 b8 b7 48 33 be
       0.00018194607 -0.00020803658 -4.7693822e-05 -0.17508207
000090 26 26 bd b8 5f 5a fb 38 11 b5 00 bb 56 a1 d0 b8
       -9.019328e-05 0.000119854456 -0.0019639174 -9.948264e-05
0000a0 1e 88 9d b9 a8 e5 84 39 ec ab 83 b9 28 8e d8 38
       -0.0003004679 0.0002534811 -0.0002511436 0.00010326161
0000b0 50 2d 58 b7 ba 38 95 b7 7d 48 f0 b8 c8 9c 2c b9
       -1.2885153e-05 -1.77886e-05 -0.00011457594 -0.00016461604
0000c0 8a b2 9f b7 68 a6 0c be ac 2a 42 39 1f 11 64 b9
       -1.9037416e-05 -0.13735354 0.00018517178 -0.00021750153
0000d0 49 20 8b bd 12 85 d7 38 12 e7 7a 38 6b 7f 8b b8
       -0.06793267 0.00010276785 5.9819846e-05 -6.65177e-05
0000e0 42 e1 4a 39 cc 7e 02 b9 74 9d 03 b9 2c 76 1b 39
       0.00019348136 -0.00012445002 -0.0001255179 0.00014825974
0000f0 33 99 8b b8 55 59 a8 bf fa 3c d3 b8 ca e2 ae 37
       -6.656572e-05 -1.3152262 -0.00010072622 2.0848023e-05

weight f4 [64, 64]
000000 dc e2 4b 38 00 d6 58 38 4c 6a 9d b7 6a df de b8
       4.861025e-05 5.1697716e-05 -1.8765357e-05 -0.00010627399
000010 7f 4e 1d 39 a1 40 b9 38 f2 92 a0 b8 51 50 9c 39
       0.00015001929 8.8335255e-05 -7.656765e-05 0.0002981448
000020 a0 11 59 39 80 d1 12 39 06 e0 8c 38 0a 27 66 b9
       0.00020701298 0.0001400169 6.717448e-05 -0.00021949052
000030 b8 9c 47 38 75 04 77 b9 00 e7 0a 39 40 c0 9b b7
       4.7591253e-05 -0.00023557416 0.0001324676 -1.8566963e-05
000040 39 4f b6 b8 05 90 3b b9 86 d0 90 b8 d9 d8 95 b8
       -8.693193e-05 -0.00017887361 -6.9052956e-05 -7.145265e-05
000050 2f 19 8f b9 ab 05 18 39 c3 40 e2 38 f9 3e bd 38
       -0.0002729385 0.00014497961 0.000107885826 9.023952e-05
000060 d2 2e 4a b8 4c 74 4c b8 35 08 fb 38 db 08 80 b9
       -4.8204158e-05 -4.87457e-05 0.00011970141 -0.0002442066
000070 1e 55 5e b8 43 c7 79 b9 5e 77 38 b9 cc a7 8b 38
       -5.3008196e-05 -0.00023820721 -0.00017592075 6.659291e-05
000080 f0 26 12 39 20 b5 0a 39 bc ed 2a b9 91 0c 64 39
       0.0001393815 0.0001322818 -0.00016301026 0.00021748456
000090 61 dc dc 38 f4 72 04 b9 8c dd ff b7 de 10 3b 39
       0.00010531466 -0.00012631324 -3.0501535e-05 0.00017839993
0000a0 44 77 db b7 74 d8 5c 38 27 0f 68 b8 7c ed 59 b8
       -2.6162372e-05 5.2653675e-05 -5.5327222e-05 -5.1958006e-05
0000b0 84 57 fe b7 86 b9 b7 39 86 c2 41 b8 8c 2b 0c 38
       -3.0319912e-05 0.00035042706 -4.619595e-05 3.3419157e-05
0000c0 40 2c c4 38 33 35 2c b9 e0 b4 83 b8 ba 46 a4 b8
       9.3542505e-05 -0.00016423016 -6.2802574e-05 -7.833303e-05
0000d0 84 d8 e9 38 ba 5e 46 39 c4 2b 24 b9 b8 4e b3 b7
       0.00011150635 0.0001891804 -0.00015656563 -2.137512e-05
0000e0 11 32 32 b9 3b 01 2e b9 ee 79 e9 38 ef f5 36 b8
       -0.00016994054 -0.00016594391 0.00011133017 -4.3621225e-05
0000f0 58 fe 15 b9 d1 b1 35 39 33 c6 e7 38 00 78 70 b4
       -0.00014304498 0.00017327747 0.00011051856 -2.2395398e-07
000100 d5 19 29 b9 b7 61 b4 be a9 46 08 39 16 4c bc 38
       -0.00016126719 -0.352308 0.00012996294 8.978711e-05
000110 f9 67 6c 39 c3 e0 b8 38 21 5c 7e 39 07 4b 01 bf
       0.00022545447 8.815669e-05 0.00024257648 -0.5050511
000120 bf 15 7e b8 e0 6d b9 36 a0 9b 26 37 a5 4a bf 38
       -6.057857e-05 5.526221e-06 9.930605e-06 9.121493e-05
000130 20 2a 4c b7 e7 8f 89 b9 a8 12 22 38 f2 48 d6 37
       -1.21691555e-05 -0.00026237892 3.8641185e-05 2.5544756e-05
000140 d2 2b 0f b9 70 ef 01 36 03 47 3d 38 20 85 32 b8
       -0.00013653867 1.936187e-06 4.5127246e-05 -4.256249e-05
000150 47 89 81 be 4f 6f 67 3e 8e ff b6 38 22 6d 34 39
       -0.25300047 0.22601055 8.726037e-05 0.00017206793
000160 19 90 1d bd bf 68 af b8 a4 1f 85 b8 28 ff 1d 37
       -0.0384675 -8.364161e-05 -6.347828e-05 9.417337e-06
000170 80 ae f7 b8 7c 59 e4 be c0 67 43 b8 73 90 09 38
       -0.00011810381 -0.4459952 -4.6588248e-05 3.2797874e-05
000180 41 1d 20 b9 2d 81 45 b9 5a d8 1f 39 ab 80 72 bb
       -0.00015269687 -0.00018835506 0.00015244019 -0.0037002962
000190 46 66 92 38 74 9a 01 39 83 68 7f be 58 71 86 b8
       6.9808724e-05 0.00012359937 -0.24942212 -6.41073e-05
0001a0 f0 76 b0 b7 50 a0 8a b7 3a 8a c1 b8 cf dc 00 b9
       -2.103622e-05 -1.6525533e-05 -9.228704e-05 -0.00012289289
0001b0 d2 8a bc b8 ce 76 80 b8 62 be 71 38 f4 a0 04 39
       -8.990396e-05 -6.125645e-05 5.7636185e-05 0.0001264846
0001c0 4c d8 47 38 8f 7f 7c 3e e6 c3 c3 b9 86 0a 5e 38
       4.764674e-05 0.24658035 -0.00037339254 5.2938725e-05
0001d0 b6 d2 92 3e a7 95 a8 b8 5f ac 7b b9 30 65 2a b9
       0.28676385 -8.038739e-05 -0.00024001439 -0.00016250159
0001e0 60 46 93 b6 1c d8 15 b9 5d 3d 9c b8 50 1d 68 b7
       -4.389134e-06 -0.00014290254 -7.4500895e-05 -1.3835102e-05
0001f0 7c d2 35 b7 6f 7d 89 3f fc e7 87 38 8c f3 fa 38
       -1.0837448e-05 1.0741404 6.480512e-05 0.00011966293
000200 8e 38 ea 38 00 f2 84 37 2e 8c 84 b8 6a 96 08 b9
       0.000111685236 1.5848316e-05 -6.320361e-05 -0.00013026004
000210 80 ee a1 b7 18 23 c4 38 61 70 c8 38 eb 8a 2e 38
       -1.9303756e-05 9.352545e-05 9.5576754e-05 4.161421e-05
000220 44 4e ba 37 08 81 2b b9 76 ba be b8 40 c5 0e b9
       2.2209373e-05 -0.00016355899 -9.094637e-05 -0.00013615657
000230 ee 0b 60 b8 9b 8e 49 b9 eb 4a db b8 3f 0f d1 38
       -5.3416872e-05 -0.00019221978 -0.00010456688 9.9687364e-05
000240 90 47 6e 37 0c 78 78 38 60 4f 85 39 24 7a 39 b9
       1.4202567e-05 5.923961e-05 0.00025426876 -0.00017688476
000250 e3 ea 07 b9 b1 4f 7a b9 12 40 16 b9 24 f2 7b 38
       -0.00012962105 -0.00023871545 -0.00014328983 6.0068574e-05
000260 8e db 1f 38 87 13 6d 39 6e 82 d3 b8 f7 23 2d 39
       3.811303e-05 0.00022609356 -0.000100855585 0.00016511964
000270 0b 01 09 b9 57 7b 1e 39 06 52 ae 38 58 a1 f8 37
       -0.00013065727 0.00015114002 8.3122446e-05 2.9639035e-05
000280 3c 38 7e 39 ca 9f 01 39 cc b7 46 37 66 73 61 38
       0.00024244277 0.00012361925 1.1844513e-05 5.3751653e-05
000290 c6 68 36 39 46 6b a7 b7 82 49 27 b9 38 e8 61 b7
       0.00017395904 -1.9957904e-05 -0.00015953745 -1.3465113e-05
0002a0 f0 05 d2 37 44 9f 80 b8 20 63 0c 39 78 a3 3e b7
       2.5036716e-05 -6.133181e-05 0.00013388367 -1.1362943e-05
0002b0 79 48 49 b8 32 58 33 39 2e 22 8d 39 30 5a 9d 36
       -4.798963e-05 0.00017103626 0.00026919082 4.689464e-06
0002c0 eb db a4 38 48 90 37 39 86 05 d8 b8 d8 46 43 b7
       7.861092e-05 0.00017505989 -0.000103007114 -1.16394e-05
0002d0 4f 45 5e b8 67 5d 3a b9 00 b6 cd b7 22 52 91 b8
       -5.2993473e-05 -0.00017773137 -2.4522655e-05 -6.929437e-05
0002e0 24 c3 bd b7 6a d5 79 b8 38 f3 40 b6 70 6a 83 38
       -2.2621425e-05 -5.9564984e-05 -2.8751801e-06 6.266392e-05
0002f0 42 5f 1d b9 ca ae b6 b9 9e 12 da 38 0c 76 a6 b8
       -0.00015008173 -0.00034843973 0.00010398518 -7.937485e-05
000300 9c 84 81 39 94 ba a7 b8 5e 60 4f b8 4b 78 e6 b8
       0.000247036 -7.9979334e-05 -4.9442395e-05 -0.00010989661
000310 b0 31 d9 b7 ea c6 15 b9 5b c5 4b 39 b2 c7 a8 38
       -2.5891553e-05 -0.00014283849 0.00019433109 8.0480604e-05
000320 be b6 1a 39 49 5f 0f b9 ba d3 69 39 f4 69 09 38
       0.00014754661 -0.00013673039 0.00022299486 3.2762022e-05
000330 5d 19 4e 38 03 b9 cd 38 c2 f1 bd b7 00 5a 01 b6
       4.913785e-05 9.809623e-05 -2.2643133e-05 -1.9274885e-06
000340 10 2c 13 b9 87 6b 18 b9 cc e2 29 39 a2 b6 05 38
       -0.00014035427 -0.00014535907 0.00016201584 3.187976e-05
000350 25 7f 2b b9 4e 04 e2 b8 f8 09 6e b9 cc b7 1b b8
       -0.00016355196 -0.000107773216 -0.00022701162 -3.7126054e-05
000360 9a 9b 00 b8 5a f2 03 38 81 dc 83 39 ce ef c3 b8
       -3.0662493e-05 3.145854e-05 0.00025150555 -9.342992e-05
000370 42 1c 0a 38 02 17 45 39 a9 29 cc b8 1a cf 53 b9
       3.292808e-05 0.00018795955 -9.735238e-05 -0.0002019968
000380 18 d4 26 b9 ec f5 04 39 fd fd 3e 38 8d fd cb 39
       -0.00015910005 0.00012680114 4.5536075e-05 0.00038908087
000390 38 3e 97 b8 8c 9c 55 b8 ec 58 55 38 27 0a 26 38
       -7.21183e-05 -5.0928953e-05 5.0865972e-05 3.958694e-05
0003a0 4c 38 bb b6 40 b9 ba b8 c7 b2 2e b9 e2 20 85 b8
       -5.579588e-06 -8.903677e-05 -0.00016660533 -6.348059e-05
0003b0 68 54 05 b8 ef 2f 8b b8 0d 3c 86 39 eb eb be b8
       -3.178828e-05 -6.636965e-05 0.00025603213 -9.103849e-05
0003c0 6a a2 47 38 07 73 01 38 f8 27 88 b9 31 5d 42 38
       4.7596557e-05 3.0863124e-05 -0.0002596972 4.6339996e-05
0003d0 54 60 2f b7 cc 3a fe b8 16 9d b2 b8 48 37 46 38
       -1.0453241e-05 -0.000121226156 -8.516961e-05 4.7258363e-05
0003e0 e9 82 17 39 58 0b 69 b8 cf e2 cc 38 11 63 61 b8
       0.0001444925 -5.5562094e-05 9.7697244e-05 -5.3736443e-05
0003f0 82 a0 04 39 14 39 a9 38 fc 1b 8b 38 58 0c e7 b8
       0.00012648295 8.0691796e-05 6.633249e-05 -0.000110172376

bias f4 [64]
000000 34 a7 32 39 71 2c 2f 3e c5 c2 81 38 b8 cc 4e 37
       0.00017037691 0.17106797 6.187478e-05 1.2326222e-05
000010 ca 79 14 38 c8 8e e2 39 18 f3 9d b8 24 75 92 b8
       3.5399375e-05 0.0004321246 -7.531623e-05 -6.983642e-05
000020 7d 73 22 b8 e2 c5 b9 3d ba e6 22 b9 f0 fc 3c b7
       -3.8731367e-05 0.09070946 -0.00015535476 -1.1264565e-05
000030 36 bb ad b8 8d 4c 6a b8 18 52 24 b9 cc 04 36 b8
       -8.2841536e-05 -5.586124e-05 -0.00015670841 -4.339665e-05
000040 0a ea 8f b8 d6 de c8 38 58 3d 6f b7 d4 2e db 3d
       -6.8623645e-05 9.5782496e-05 -1.4259793e-05 0.10702291
000050 08 13 36 b9 9a 86 cf 3d 80 d8 0c b7 9f f3 28 39
       -0.00017363962 0.10133095 -8.395058e-06 0.00016112484
000060 ac 0e 3e 39 46 82 38 39 7c 99 06 b9 a0 bd 60 b6
       0.00018125278 0.00017596138 -0.00012836413 -3.3488977e-06
000070 a3 f8 ce b8 24 26 44 b8 15 d3 31 39 5a 24 34 3e
       -9.869158e-05 -4.6765563e-05 0.0001695867 0.17591992
000080 d4 30 7d 37 e5 3e ac 38 96 c9 a2 b8 50 bc 05 b9
       1.5091344e-05 8.213314e-05 -7.76231e-05 -0.0001275402
000090 12 04 16 b9 ad c3 83 38 65 f6 2c 39 5f ef 0a 3e
       -0.00014306631 6.283014e-05 0.00016494987 0.13567875
0000a0 d8 56 33 b7 d3 33 0b 39 db dc 0e 38 1a 9e 61 39
       -1.0689451e-05 0.00013275379 3.4061126e-05 0.0002151657
0000b0 4a 5a 9b b8 82 49 4c b9 a7 b7 80 b9 42 36 90 37
       -7.4077936e-05 -0.0001948234 -0.00024550894 1.7191403e-05
0000c0 2c b3 20 3e 5a 12 86 b9 56 57 30 38 74 60 61 3d
       0.15693349 -0.00025572145 4.2043008e-05 0.055023625
0000d0 e8 32 be b8 bc 61 23 39 a4 c0 35 3e 8d 31 17 39
       -9.069388e-05 0.000155813 0.17749268 0.00014418941
0000e0 42 9a a0 b8 23 f4 2f b9 56 bc 1b 3e 5b aa 0d b9
       -7.658127e-05 -0.00016780249 0.15208563 -0.0001351027
0000f0 85 c2 19 b9 35 a1 e2 38 be 5d 8d b8 f2 e5 88 38
       -0.00014663681 0.00010806547 -6.740865e-05 6.527816e-05

weight f4 [1, 64]
000000 42 05 3b b9 06 c8 47 40 92 32 c4 b8 9a d3 12 b9
       -0.00017835668 3.1215835 -9.355428e-05 -0.00014002473
000010 7f 23 e2 38 d2 c7 17 39 aa b6 ee 38 49 cb f7 b8
       0.000107831314 0.00014474921 0.00011382748 -0.000118157426
000020 97 ac 86 b7 09 bc 32 c0 48 c3 8c b9 7e e8 aa 38
       -1.6054413e-05 -2.7927268 -0.00026848377 8.149537e-05
000030 05 00 79 b9 98 d8 c6 b7 c0 3d 3e b7 82 4b 4f 38
       -0.00023746498 -2.3704299e-05 -1.133926e-05 4.9422968e-05
000040 f2 4c b4 38 22 c1 11 b9 d4 bd 0e b9 bf 6d c3 bf
       8.597401e-05 -0.00013900225 -0.00013612892 -1.5267867
000050 51 29 b1 38 e3 6b 08 40 2b 0a 42 38 82 e4 a2 b8
       8.4477135e-05 2.131585 4.6262674e-05 -7.767325e-05
000060 f2 a3 69 39 f6 e0 a4 b7 ea 9c 88 b9 48 34 9a b8
       0.00022281686 -1.9655079e-05 -0.00026056851 -7.3530304e-05
000070 10 5c 3f b7 ba 84 cd 39 b1 55 b9 b8 09 71 4d 40
       -1.1405922e-05 0.00039199536 -8.837449e-05 3.210024
000080 c0 ef f5 b7 8d aa f8 b8 ba 93 22 b9 84 84 4f 37
       -2.9317918e-05 -0.00011857329 -0.00015504556 1.2369015e-05
000090 f4 7e 95 37 40 e4 46 b8 de 8a ec b9 53 76 31 c0
       1.7821301e-05 -4.7419453e-05 -0.00045116892 -2.772847
0000a0 14 3a a8 38 f7 60 f3 b8 e0 c7 f6 b7 c0 4c 09 38
       8.021682e-05 -0.00011605204 -2.941856e-05 3.2734824e-05
0000b0 c8 85 20 39 a2 77 25 b8 2c cd e8 38 2b a8 3d 39
       0.00015308626 -3.9450482e-05 0.00011100838 0.00018087092
0000c0 67 f2 a1 bf 1c 17 8c 37 48 6e 0f b8 da 54 18 c0
       -1.26521 1.6700062e-05 -3.4196564e-05 -2.380179
0000d0 a2 1f 22 39 78 a9 17 b9 e4 09 48 40 8c 20 4b b9
       0.00015461308 -0.00014463614 3.1256037 -0.00019371713
0000e0 15 61 33 b8 07 a5 23 b8 c1 48 24 c0 d2 ce a4 37
       -4.276734e-05 -3.9015922e-05 -2.5669405 1.9646632e-05
0000f0 06 03 6c 38 46 1e 9a 38 10 4a ed b7 a7 9b d4 b8
       5.62696e-05 7.348931e-05 -2.828709e-05 -0.0001013794
