Code/Weights/Model/nn.pt (torch, 22071 bytes, 5 tensors)

weight f4 [64, 8]
00000000: f4f7 7e38 25f1 5db9 e7ef 8cb9 ec3d ebb8
00000010: fbe2 22b9 9e1a 0139 f24c 9638 a3fd 9739
00000020: aaaa aa38 a48f 1cb8 3053 fb36 94b5 0fb9
00000030: d42b 1938 0a9d dfb7 3ea9 ee38 dcfe fb36
00000040: 92e2 9eb8 1892 26b7 eee2 3c39 8625 55b9
00000050: 6016 edb8 cf61 4039 f802 9038 ad89 b7b8
00000060: b534 81b9 c81e c43d 7a53 2b3e 9a3b 2c3a
00000070: 6d32 8bbf 26cb 123a 452f a338 de38 433e
00000080: 2cd0 2438 80af 8dbc 84c4 1abc 0ac9 2b3a
00000090: 2453 f7bc 43c5 5ab9 52ba c239 6443 3eb9
000000a0: 0001 1739 616d 74b8 f677 63b8 cc2a 73b8
000000b0: c4cc 1437 15ac 5d38 99b3 3cb8 0602 4937
000000c0: 8a24 e7b8 b4d0 1f37 1c4a d338 9250 bb38
000000d0: 2b7a 4e39 4db7 1ab8 9e74 60b9 db23 1db9
000000e0: 72df 01bf 15b1 1e3e e5f8 27be e166 ae3e
000000f0: 45a9 81bd 1629 a5b9 4009 04bf d5c7 d6bd
00000100: 1ae4 3539 b7ca 9138 a27a 10b7 8ed5 88b8
00000110: 8b16 5d38 10c5 e2b7 7a74 4d39 ce75 a838
00000120: 6db1 9a3a 6acf 6d3e 1fd2 f5bd 17c9 3e3d
00000130: 0357 a0be 50f9 293d 8a22 b4b8 fd8b 8b3e
00000140: 89c4 29b9 9b7b c237 7e33 5f37 e690 8538
00000150: 30ee a136 8e48 dfb7 ea8e adb8 00c5 bf34
00000160: caaa 9738 4654 e738 bb43 ae37 eda6 8138
00000170: cfb1 ac38 c83c 4f37 3086 9cb7 d8ef b6b7
00000180: d0cb 7337 29f5 01b8 deb8 1ab9 44c4 7d38
00000190: 2a98 0638 4566 4339 8001 04b9 4f54 10b9
000001a0: fc80 b1b7 7d99 9db9 cec9 9d38 0454 70b8
000001b0: 9e85 03b8 9056 fdb8 4a9c 0fb8 b755 0639
000001c0: e6ee 0db9 2437 a737 aa8c 1cb9 03f3 9738
000001d0: e258 deb8 d5f1 6738 a409 3bb9 e833 4bb8
000001e0: 2093 96b6 a073 1b39 2c33 30b8 7366 ecb9
000001f0: 393f 32ba 376c 1638 a46b 0039 de7d a338
00000200: 8471 1239 7193 e5b9 8002 fbb5 d012 0039
00000210: 204c 51ba 455f 0db9 776d 53b9 1df9 0f3a
00000220: 66df 4a39 eed4 4838 6934 2039 94d5 d9b8
00000230: ae97 42b8 6d49 a1b8 2aff 8a39 5615 b138
00000240: 9dca 6f39 ca02 e538 18e9 8f38 a939 9c38
00000250: 86d9 9e37 1e6e 3d38 2ec2 93b8 2884 69b7
00000260: 8097 f4b6 790a 0538 519c 1238 f266 8cb8
00000270: 0ed7 2537 097c 20b9 bf8c ecb8 e4d8 9eb8
00000280: 4319 b2b8 b4e7 b1b8 807b b9b5 912a 88b9
00000290: 5e4d 5938 0fe7 5539 6e77 f738 4067 8ab5
000002a0: 4ddf a139 a54e b0ba 77c5 55ba c0db b6b9
000002b0: 94c1 7abb e60b 90b8 53f2 2d39 74dc 28b8
000002c0: a806 e237 58a8 3c38 d15f 2bb9 2e60 0839
000002d0: 88e2 9b38 c2c6 1238 da41 2b39 b3e1 5a38
000002e0: b23c 34b9 3acf 90b7 944c aa38 f375 c2b8
000002f0: 1db5 1238 64c4 b0b7 1e25 91b8 89b3 f737
00000300: 3ad2 6eb9 9414 d3b6 9004 a735 cc3b 3439
00000310: e463 3bb8 ce0a 6db8 49b5 0eb9 6a32 40b8
00000320: e6af b1b9 0d3d 023d 0533 5c3e 7ff1 45bd
00000330: 5dd9 a9bd 8bb7 83bb e821 75ba f768 263d
00000340: 5830 47b6 bc15 0238 8a6d 19b8 d438 0838
00000350: 2dae ca38 8c15 1c39 b4c3 32b7 4981 b3b9
00000360: 20e6 c7b9 447d 87b7 fefb 2238 8214 72b8
00000370: d1fa 0038 981b eab6 a0b9 1c38 e290 f1b7
00000380: 7a2d 0dbb 551f e5bd 7ae5 483e 8ef0 103c
00000390: 4374 96bc a707 943e 3a97 deb8 ce6a bc3d
000003a0: 29fb 6a38 c2f8 0bb9 26b4 0cb9 1870 1639
000003b0: 0b4d 5bb9 e0bf b6b6 0f6f 6539 a803 0bb9
000003c0: 1576 02b9 2ee6 37b8 aa0e 2e39 9501 04b8
000003d0: d8a5 10b9 8ee5 de38 74db f338 4175 4eb9
000003e0: 457b e638 c308 2eb9 c52e ed38 0242 abb8
000003f0: e023 fcb8 0e24 9bb8 5ae7 2ab9 488d 0338
6.0789243e-05 -0.00021166036 -0.00026881622 -0.00011217207 -0.00015534081 0.00012312314 7.1668896e-05 0.00028989938
8.13802e-05 -3.7327074e-05 7.490067e-06 -0.00013705186 3.651886e-05 -2.6656799e-05 0.00011380248 7.5100525e-06
-7.576229e-05 -9.928386e-06 0.00018013615 -0.00020327242 -0.00011305208 0.00018346983 6.867008e-05 -8.751764e-05
-0.00024644067 0.095761836 0.16731063 0.00065701606 -1.0874764 0.00055997295 7.78125e-05 0.19064662
3.9294522e-05 -0.017295599 -0.009446267 0.00065530895 -0.030191012 -0.00020863586 0.00037141383 -0.00018144917
0.00014400855 -5.8276e-05 -5.423274e-05 -5.7975572e-05 8.869163e-06 5.285077e-05 -4.4989956e-05 1.1981005e-05
-0.00011021744 9.525731e-06 0.00010075068 8.931862e-05 0.00019691202 -3.6887173e-05 -0.00021405748 -0.00014986044
-0.50731575 0.15497239 -0.1640354 0.34062865 -0.06331114 -0.00031501864 -0.51576614 -0.10487334
0.0001734648 6.9518974e-05 -8.6116215e-06 -6.524763e-05 5.27115e-05 -2.7033064e-05 0.00019593714 8.032807e-05
0.0011802145 0.23223653 -0.12002968 0.046578493 -0.31316385 0.04149753 -8.589502e-05 0.2725524
-0.00016190311 2.318416e-05 1.3303825e-05 6.368924e-05 4.8259026e-06 -2.6617457e-05 -8.275903e-05 3.571986e-07
7.232053e-05 0.000110306355 2.0773956e-05 6.182292e-05 8.2347186e-05 1.2352313e-05 -1.8659135e-05 -2.1807777e-05
1.45313825e-05 -3.098432e-05 -0.00014755453 6.0502687e-05 3.2089803e-05 0.00018634748 -0.0001258906 -0.00013764318
-2.1160107e-05 -0.0003005973 7.5239324e-05 -5.7298705e-05 -3.1357275e-05 -0.000120801036 -3.4239412e-05 0.00012811167
-0.00013535804 1.9933628e-05 -0.00014929721 7.2455055e-05 -0.000106023406 5.5299915e-05 -0.00017837301 -4.8447313e-05
-4.487476e-06 0.00014825026 -4.2009327e-05 -0.00045089758 -0.0006799582 3.586357e-05 0.0001224713 7.79589e-05
0.00013965933 -0.00043788136 -1.8701685e-06 0.0001221404 -0.0007984061 -0.00013482299 -0.00020163307 0.0005492138
0.00019347444 4.7882022e-05 0.00015278313 -0.00010387148 -4.6394467e-05 -7.690755e-05 0.00026511523 8.443992e-05
0.00022868295 0.000109200904 6.8621885e-05 7.4494e-05 1.893636e-05 4.5163666e-05 -7.045675e-05 -1.3918652e-05
-7.2894036e-06 3.1719424e-05 3.4954694e-05 -6.694895e-05 9.884838e-06 -0.00015304996 -0.00011279573 -7.574426e-05
-8.492407e-05 -8.483176e-05 -1.3819517e-06 -0.00025971656 5.1808885e-05 0.00020399339 0.00011800123 -1.0311851e-06
0.00030874685 -0.0013451172 -0.000815473 -0.00034877472 -0.0038262354 -6.868671e-05 0.00016588838 -4.0259634e-05
2.6944399e-05 4.4979475e-05 -0.00016343525 0.000130058 7.433171e-05 3.499422e-05 0.00016332362 5.218545e-05
-0.00017188748 -1.7262635e-05 8.1204955e-05 -9.2726106e-05 3.4977787e-05 -2.1072286e-05 -6.9210524e-05 2.9528297e-05
-0.00022775764 -6.2906856e-06 1.2443797e-06 0.00017188414 -4.4677305e-05 -5.6515266e-05 -0.0001360971 -4.582332e-05
-0.00033891125 0.031796504 0.21503837 -0.04832601 -0.08293412 -0.0040196828 -0.0009351061 0.040627446
-2.968145e-06 3.1014657e-05 -3.658006e-05 3.2477852e-05 9.664553e-05 0.00014885346 -1.0655192e-05 -0.00034237865
-0.00038127694 -1.6151585e-05 3.8858496e-05 -5.7716396e-05 3.075117e-05 -6.976956e-06 3.7366175e-05 -2.8796905e-05
-0.0021541999 -0.11187617 0.19618788 0.008846415 -0.018365985 0.28912088 -0.00010613953 0.09200059
5.602386e-05 -0.00013348743 -0.00013418551 0.00014346873 -0.00020914168 -5.44636e-06 0.00021880514 -0.00013257435
-0.00012441755 -4.384497e-05 0.00016599396 -3.1472726e-05 -0.00013794692 0.00010628543 0.00011628019 -0.00019689371
0.000109902154 -0.00016597197 0.00011309752 -8.16621e-05 -0.000120229786 -7.397692e-05 -0.00016298649 3.1364412e-05

bias f4 [64]
00000000: 0e39 3cb9 c727 e4b8 bbad b138 4786 1839
00000010: d06e d937 e41a 10b8 aeb2 5c38 11ee 3b3a
00000020: 426c 38b9 d303 313a 6957 bfb8 0b13 3539
00000030: 90cc a139 61da 0db9 66fa 11b9 9230 a9b6
00000040: 2aa3 8c38 6440 0938 1b9c 6fb9 002b 3eb9
00000050: 06f5 4fb9 4456 c4b8 28c8 aab8 44cf 7ab7
00000060: 5e13 7638 5767 bcba 2471 fb37 3700 0239
00000070: d05b 303a 42aa 4838 a070 3a37 7911 3039
00000080: a022 a8b5 685d 0eb8 c650 12b9 3abd 58b8
00000090: 78ad 353a 8664 3938 625e 5cb9 babd 39b9
000000a0: 8af3 2239 e008 a6b8 5d33 b43a 49b3 7a38
000000b0: dc66 9e38 ba03 0f38 c036 eeb8 64bb 4eba
000000c0: 34c4 19b8 6cf3 a5b9 aa2e 14b9 942e 7038
000000d0: 2041 13b9 fb09 9fb9 0a70 43b8 7459 e9b7
000000e0: 321d eb37 5d24 1cb9 73a2 6f37 8218 46b8
000000f0: 8869 06be fc77 6db7 9479 f0b8 9f7d 9bb8
-0.00017950332 -0.00010879296 8.4723775e-05 0.00014545872 2.5920017e-05 -3.435732e-05 5.2618496e-05 0.00071689585
-0.00017587937 0.0006752584 -9.123871e-05 0.00017268599 0.00030860724 -0.0001352816 -0.00013921558 -5.042247e-06
6.706112e-05 3.2723314e-05 -0.0002285097 -0.00018135831 -0.00019832337 -9.3620765e-05 -8.143514e-05 -1.4949419e-05
5.8669008e-05 -0.0014374059 2.9974217e-05 0.00012397846 0.00067275483 4.784228e-05 1.11126865e-05 0.00016791177
-1.2527053e-06 -3.394243e-05 -0.00013953735 -5.1674644e-05 0.0006930451 4.4201057e-05 -0.00021015995 -0.00017713654
0.0001554025 -7.91715e-05 0.0013748218 5.9771617e-05 7.553186e-05 3.4097327e-05 -0.00011358922 -0.00078862
-3.666077e-05 -0.00031652616 -0.00014131764 5.726384e-05 -0.00014043273 -0.0003033428 -4.6595967e-05 -2.781742e-05
2.8027778e-05 -0.00014890866 1.4283333e-05 -4.7229703e-05 -0.13126194 -1.4154237e-05 -0.000114667375 -7.414375e-05

weight f4 [64, 64]
00000000: 61ea 4f39 85df 3039 9384 39b9 8ec2 f1b8
00000010: 28a9 f4b8 a372 7039 20ac 29b6 cafc c2b8
00000020: 2a04 f338 1233 9eb8 8656 de37 344a 2538
00000030: 034f d038 7354 2439 3602 ea38 f9c1 1a38
00000040: aae4 3239 a36f 8e38 7ef0 8739 86ae 37b9
00000050: 288b 1839 984d 8f38 3853 0bb8 eea5 81b8
00000060: 20e4 4eb9 2bf5 94b9 66ce cab8 2125 b6b8
00000070: 7024 66b9 1454 6138 dc97 50b8 2491 51b9
00000080: 86c0 0038 b21b 2cb7 1cbb 66b8 7dcd 8337
00000090: 4184 0db9 0cb4 2639 bedc 12b9 485e 1039
000000a0: 7ae7 5e39 b0d5 78b8 de32 e338 e05f 25b8
000000b0: 1f09 8d39 323b d9b8 0e9a 4eb9 0211 07b9
000000c0: f853 5bb9 20b2 06b9 da53 22b9 c2a0 83b9
000000d0: e8f0 4239 4888 32b9 93cd 5db9 17c3 ec38
000000e0: 872b 8239 b13b 4e39 e28c 4ab8 80b4 ab38
000000f0: 0007 c137 f2f2 7c37 1dfb 9bb8 b897 95b9
00000100: a274 0eb9 b008 23b9 5ed5 4a39 ad1f 12b9
00000110: a1d4 db38 a899 8eb9 b9eb 9539 434c b7b8
00000120: e969 d938 b089 dfb8 355b b6b8 7240 8339
00000130: 1c5b 2e39 ecc8 59b8 1419 4838 7440 5039
00000140: 1c9c 08b9 9641 0fb9 ffa7 9239 4c66 31b9
00000150: eef0 b5b7 21f8 1139 ab58 9ab8 5e2d df38
00000160: 802a 4935 18c3 67b7 ea10 0339 4722 3c39
00000170: 7dd1 9b39 bd33 90b9 b513 8838 8772 0fb9
00000180: b02e 90b9 d27c 1bb8 0449 a0b8 5a4f 6138
00000190: 7cd3 1db8 11dd 81b9 87fc 10b9 98a7 4cb9
000001a0: 899b 2e39 ba57 92b8 0f81 b2b8 03c7 3639
000001b0: 6a66 87b7 beb5 d537 913b 5239 e77e c338
000001c0: 28c5 1c39 e9fe f6b8 37ec 2fb9 3083 4a38
000001d0: 3e9f 84b9 0244 37b8 c2c6 4db9 6162 7b38
000001e0: c010 b5b5 52f0 3bb8 c235 d538 a0f2 f4b7
000001f0: a068 5537 5686 36b9 4b7b 2137 999a c2b8
00000200: 5ce3 b3b7 74f6 64b8 31eb 8039 7447 4939
00000210: 1def 30b8 4a4d 85b8 469a 9f36 34bc 1739
00000220: 0acd 29b9 eeba 3f39 6211 70b7 5d49 19b9
00000230: 02c9 3db9 f564 08b9 3a43 12b9 6a39 b3b6
00000240: b300 95b8 073e ab37 75fb c738 b535 99b8
00000250: ae0c 3db9 3b48 1eb9 158a b338 f708 ceb8
00000260: 004f 1bb7 ee4b 74b8 6b50 1638 8ba4 1f39
00000270: 96a9 9437 caa6 ea38 def2 91b9 5506 85b8
00000280: 7ed5 39b9 8505 82b9 ab8c 3ab9 f990 3739
00000290: 402c b338 5ab7 9138 58f2 2eb6 0cff 5e38
000002a0: 8502 9139 30ac 2f39 46d3 40b8 847d 3fb9
000002b0: 8a8f 18b9 64b6 31b9 5810 b738 34fe ec38
000002c0: f9d6 8db7 b27e dc38 a698 5db8 99d3 b537
000002d0: 31f1 3ab9 8bda 98b9 b02b 2b39 e4ee 6e38
000002e0: 971e e538 4e0b 5bb9 5828 3cb9 d05f 23b8
000002f0: 252e 4039 ec80 a236 9123 0d39 a7c3 2fb9
00000300: fca9 9638 2cca 0d38 cfa3 0c39 34a7 ba38
00000310: 167d 5938 4e2a 98b8 68da 2638 5f33 f2b8
00000320: c650 64b7 e4e8 5938 3477 3ab9 ba76 49b9
00000330: c255 4839 597a f937 2878 2838 052b 99b7
00000340: c0c8 f0b4 3239 7c39 1c33 4fb9 d7d0 5439
00000350: 7c18 fab7 2d62 9639 6026 2035 2b7c 1cb9
00000360: 4ab3 f4b8 8e9b ad38 d287 4439 c09e a9b7
00000370: 06eb 8eb9 3203 c536 8a2b aa38 5e92 47b9
00000380: 8618 98b8 8b0b 91b9 d8d4 24b8 8fa4 8739
00000390: 48e3 9538 c091 2c39 ea85 3b39 60bd 61b7
000003a0: 3679 d638 23f3 1db9 1ef5 3038 70aa 8db9
000003b0: 3dca 06b9 7086 4e39 aa83 beb7 0198 3cb9
000003c0: b027 55b8 806f 7db9 32f1 68b9 6923 89b9
000003d0: 4026 7838 0a9b fb38 de7a 0bb9 0863 3ab6
000003e0: b156 82b9 0b11 85b9 c25f adb7 ffcc 7739
000003f0: fbfc d7b8 e727 f0b8 ca45 3eb9 0a8d 40b9
0.00019828371 0.00016867935 -0.00017692363 -0.00011528014 -0.000116663345 0.00022930889 -2.5283152e-06 -9.2977265e-05
0.000115879186 -7.54354e-05 2.6504753e-05 3.9408173e-05 9.93293e-05 0.00015671719 0.00011158401 3.6897112e-05
0.00017060587 6.7918816e-05 0.00025928387 -0.00017517255 0.0001454769 6.833224e-05 -3.3217686e-05 -6.182106e-05
-0.00019730674 -0.00028411424 -9.670555e-05 -8.685352e-05 -0.00021948083 5.3722484e-05 -4.9732495e-05 -0.00019985862
3.069688e-05 -1.0258447e-05 -5.5010532e-05 1.5712105e-05 -0.00013496076 0.00015898066 -0.00014005878 0.00013768033
0.00021257802 -5.932682e-05 0.00010833678 -3.9428356e-05 0.00026900411 -0.00010358392 -0.00019703081 -0.00012880939
-0.00020916748 -0.00012845593 -0.00015480761 -0.0002510604 0.00018591026 -0.00017026172 -0.00021152785 0.00011289695
0.00024827963 0.00019667928 -4.829176e-05 8.187536e-05 2.3010653e-05 1.5076936e-05 -7.4377494e-05 -0.00028532534
-0.00013585624 -0.00015548128 0.00019343707 -0.00013935445 0.00010482339 -0.00027198833 0.00028595122 -8.740325e-05
0.00010367094 -0.00010659115 -8.695425e-05 0.00025034283 0.00016627874 -5.1923955e-05 4.770707e-05 0.00019860436
-0.00013028126 -0.00013661975 0.00027972457 -0.00016918144 -2.1689073e-05 0.00013920713 -7.359808e-05 0.00010641919
7.494018e-07 -1.3814097e-05 0.00012499435 0.00017941846 0.00029719985 -0.00027504368 6.488656e-05 -0.00013680207
-0.00027500605 -3.7071128e-05 -7.642995e-05 5.3718082e-05 -3.7628677e-05 -0.00024769505 -0.00013826984 -0.0001951739
0.00016651874 -6.978163e-05 -8.5117405e-05 0.0001743101 -1.6140944e-05 2.5476209e-05 0.00020049351 9.321962e-05
0.00014950766 -0.00011777675 -0.00016777297 4.828273e-05 -0.00025295647 -4.3693937e-05 -0.00019624367 5.9934686e-05
-1.3490426e-06 -4.480809e-05 0.00010166645 -2.9200048e-05 1.2720149e-05 -0.00017406917 9.625054e-06 -9.279437e-05
-2.1444335e-05 -5.4588963e-05 0.00024589294 0.00019195472 -4.218436e-05 -6.3563304e-05 4.756529e-06 0.00014470593
-0.00016193479 0.00018284816 -1.4309162e-05 -0.00014618547 -0.00018099326 -0.0001300758 -0.00013948689 -5.3412996e-06
-7.105004e-05 2.0413672e-05 9.535897e-05 -7.305612e-05 -0.00018029168 -0.00015094962 8.561105e-05 -9.824515e-05
-9.257114e-06 -5.824485e-05 3.5837682e-05 0.00015224719 1.7721944e-05 0.000111890564 -0.00027837505 -6.343114e-05
-0.00017722507 -0.00024799645 -0.00017790745 0.00017506247 8.543627e-05 6.948291e-05 -2.6069083e-06 5.3166455e-05
0.00027658432 0.00016753445 -4.597313e-05 -0.00018261938 -0.00014549322 -0.00016947981 8.729164e-05 0.00011300706
-1.6908614e-05 0.00010514016 -5.283267e-05 2.1675414e-05 -0.00017828193 -0.00029154526 0.00016324106 5.6966106e-05
0.00010925269 -0.00020889679 -0.00017944106 -3.895146e-05 0.00018327737 4.8429847e-06 0.00013460057 -0.00016762187
7.1842194e-05 3.3805307e-05 0.00013412464 8.900315e-05 5.1853327e-05 -7.255805e-05 3.978089e-05 -0.00011549028
-1.36086655e-05 5.1953728e-05 -0.00017782749 -0.00019213083 0.00019105434 2.9740086e-05 4.0166226e-05 -1.8259054e-05
-4.4849548e-07 0.000240539 -0.00019760098 0.00020295694 -2.9813724e-05 0.00028683376 5.966049e-07 -0.00014923576
-0.00011668222 8.278257e-05 0.00018742614 -2.0220294e-05 -0.00027259457 5.8714295e-06 8.1143415e-05 -0.00019032645
-7.252493e-05 -0.00027665155 -3.9298873e-05 0.00025871812 7.147208e-05 0.00016457494 0.00017883597 -1.3455137e-05
0.000102268925 -0.00015063262 4.2189953e-05 -0.00027020602 -0.00012854575 0.00019695773 -2.2711076e-05 -0.00017985703
-5.082012e-05 -0.00024169497 -0.00022215096 -0.0002615706 5.916343e-05 0.00011997491 -0.00013301845 -2.7773804e-06
-0.00024860122 -0.00025380435 -2.0667798e-05 0.00023632123 -0.0001029912 -0.00011451524 -0.0001814581 -0.00018363088

bias f4 [64]
00000000: c87e 30b9 bdfc 0a39 5840 6538 9edc 0239
00000010: 4ab9 d3b9 f9b6 92ba af61 08ba 9e8f 41b9
00000020: e678 3db8 dd8e 6639 c48b 71ba 0dfe a5bf
00000030: 7cae 0ab8 cabc bdb8 7ba2 20ba eaa7 a838
00000040: b867 86b8 f681 b43a 9487 aab7 5a78 1e39
00000050: 4f13 48b9 a0a3 1038 16e7 f0b8 b36d ef3f
00000060: cc58 fe36 d4a4 b637 34ff 34b9 ebfc 69bf
00000070: e1f2 4b39 c379 52b8 91d4 c237 74a0 1cb8
00000080: 28e8 3bb9 9730 6039 41fe 62b9 08bc 00b8
00000090: 403c 4c35 3b90 2a39 f886 0bb8 f2cb a3b8
000000a0: 0ca4 8938 edc9 4a39 e68c 8cb9 8bc2 03b9
000000b0: a566 0239 4a2f 9a3a 8502 6ab8 725c 0439
000000c0: 96bf cbb7 b028 4bb7 ac6e 80b9 3e09 1fb9
000000d0: 4eb6 31bb e8eb 20b9 b629 35b9 b90a dbb8
000000e0: 56a9 15b8 f316 2fb9 952e da38 8997 3e38
000000f0: 6084 d7b6 bfb7 8c39 8933 a7b7 9687 81ba
-0.00016831898 0.00013254858 5.465778e-05 0.00012479952 -0.00040383107 -0.0011193446 -0.0005202544 -0.00018459416
-4.5173707e-05 0.0002198773 -0.0009214247 -1.2968155 -3.3064265e-05 -9.047387e-05 -0.0006127727 8.042141e-05
-6.408937e-05 0.0013771642 -2.0328713e-05 0.00015112889 -0.0001908068 3.4484663e-05 -0.00011487135 1.8705353
7.580127e-06 2.1772845e-05 -0.00017261208 -0.9140155 0.00019450068 -5.01813e-05 2.3225586e-05 -3.7342732e-05
-0.00017920195 0.00021380406 -0.00021647757 -3.0692696e-05 7.60836e-07 0.00016266193 -3.3265882e-05 -7.8104335e-05
6.563225e-05 0.00019339444 -0.00026807858 -0.00012565606 0.00012436004 0.0011763361 -5.5792294e-05 0.0001262294
-2.42887e-05 -1.2109216e-05 -0.0002449652 -0.00015166865 -0.0027116719 -0.00015346671 -0.00017277044 -0.00010444731
-3.5682075e-05 -0.0001669785 0.000104037266 4.5440658e-05 -6.42291e-06 0.00026839782 -1.993195e-05 -0.0009882327

weight f4 [1, 64]
00000000: 6d80 d338 2af2 94b8 4668 5e39 45c0 8ab9
00000010: eace 0eb9 b3cd 3a3e 810f 1b3f 600e 7c36
00000020: 3ae5 91b8 0065 8937 6199 383e 702d c33f
00000030: b3fe fb38 494c ad38 1c8c 3c3e a0b9 93b8
00000040: f28c ab38 7631 a03f c07f a2b4 792f dab9
00000050: f071 47b7 6e8e 56b8 a85b 52b8 025e 53c0
00000060: 479f 37b9 585a 0c39 0681 8138 19c8 8b3f
00000070: 3eaa b938 5069 c537 e808 50b8 71bc 91b9
00000080: 8462 2337 d853 91b9 55e7 403e 9867 4539
00000090: ea69 c2b9 1237 1bb9 68a6 3439 f797 55b8
000000a0: 4ed7 1cb9 6dff cd38 048c c0b8 113a d3b8
000000b0: c6d0 29b9 a2d3 c0bf 216a 1b39 70dd 1fb7
000000c0: ce74 8f38 4cf5 abb8 e86b ae38 a800 3db8
000000d0: b58c 193f af72 87b9 4b54 05b9 8439 bcb7
000000e0: 4af4 2739 332d 2738 d2ad 9439 21b0 8f38
000000f0: d254 8c38 9321 cc38 1864 28b8 41b9 363e
0.00010085185 -7.1022965e-05 0.00021210415 -0.00026464663 -0.00013619257 0.1824253 0.6057053 3.7559294e-06
-6.9568356e-05 1.6378704e-05 0.1802726 1.5248241 0.00012016054 8.263492e-05 0.18412822 -7.0440816e-05
8.1801685e-05 1.2515094 -3.0267802e-07 -0.0004161557 -1.1887852e-05 -5.1154224e-05 -5.0153263e-05 -3.3026128
-0.00017511575 0.00013385096 6.175232e-05 1.092044 8.8531975e-05 2.353327e-05 -4.959936e-05 -0.00027796955
9.738495e-06 -0.00027719024 0.18838246 0.00018825976 -0.00037081476 -0.00014802467 0.00017228129 -5.0924686e-05
-0.00014957527 9.8227385e-05 -9.1813534e-05 -0.0001007208 -0.0001619487 -1.5064585 0.00014821488 -9.528696e-06
6.840528e-05 -8.1996055e-05 8.317066e-05 -4.5061723e-05 0.59980327 -0.00025834652 -0.0001271527 -2.243813e-05
0.00016017366 3.9857998e-05 0.00028358266 6.851578e-05 6.691519e-05 9.733732e-05 -4.014754e-05 0.17844106
