Code/SavedWeights/nn.pt (torch, 21999 bytes, 5 tensors)

weight f4 [64, 8]
-0.000114506176 -0.0069716307 -0.0015726807 4.5805973e-06 -0.0107580265 2.7050199e-05 -5.224024e-05 6.1747814e-06
1.0788175 -0.15021574 0.19707772 0.23279436 0.0062836166 -0.07499158 0.719257 0.1834819
-0.79165065 -0.20452711 -0.0046461383 -0.09004497 0.18738812 -0.093302704 -0.53492516 0.34975982
-0.005020674 0.1879196 0.12460356 0.09331656 -1.5117518 0.058641553 0.0045122067 0.27953213
0.08883609 0.27066538 -0.39168614 -0.016286645 -0.013852593 0.20632772 0.4729645 0.008514376
0.058359407 0.15221147 0.41015717 -0.22500327 -0.38704848 0.39031935 -0.09314784 -0.17124194
-0.12828806 0.109602384 -0.19198841 -0.02116943 0.052852385 -0.28219977 0.002062871 0.11023123
0.10287413 0.31880128 0.013374682 -0.39976063 -0.21835624 0.011887173 -0.51892346 0.22004814
-0.232038 0.12886322 0.15478297 0.37325147 -0.1486907 -0.04020335 -0.35029253 -0.25869268
-0.9229609 0.29872587 -0.052259397 -0.18307406 -0.21065487 0.11706229 -0.38084695 -0.11365322
-0.033476695 -0.0056033027 -0.16599709 0.040139325 0.11407726 0.027495774 0.005198552 -0.055976294
0.29732317 0.025589863 0.04939768 -0.43320584 0.106541626 0.2906134 0.6018958 -0.2552696
-0.06002074 -0.0468288 0.22966982 -0.15197825 0.1681069 -0.47501004 0.0018355009 -0.20401864
0.102327675 -0.03754502 0.23469138 -0.111380115 0.14600329 -0.4775993 0.001912213 -0.32558316
4.788153e-06 -0.0056142192 -5.0784693e-06 2.2470467e-06 -0.004220845 -5.49966e-07 0.00019603115 -1.0631846e-05
-5.872303e-05 -0.01341568 -0.013305317 -0.0046599773 -5.797865e-05 -0.002198289 -0.0003171239 -0.00076296774
-0.00029082454 -0.0070334557 -0.0013711624 0.00044801255 -0.0118453605 0.00043128745 -5.077522e-05 -4.42202e-05
-0.11590518 0.20512109 -0.09472135 -0.28474593 0.029299725 -0.198643 -0.0027655286 -0.18069556
6.996182e-05 -2.2029785e-06 -6.1955093e-06 3.917297e-06 -0.0022552852 -1.6756037e-05 0.00026066156 -2.2192797e-05
0.26764038 -0.23705807 0.0075225346 -0.009767867 0.10985806 -0.3931319 0.014458635 -0.27170518
0.5776719 -0.009701232 0.4361513 -0.061999638 -0.34360322 0.200531 0.51100194 -0.2369716
-0.6294519 -0.32129753 -0.17198111 -0.043374132 0.29158187 0.31707123 -0.046412244 0.23896533
-0.00017639068 -0.010653733 -0.008294119 -0.007867022 -0.017795324 -0.008980495 0.00010493587 -0.0052687447
-4.6505826e-05 0.15048632 -0.20610182 0.0014868435 -0.36762276 -1.4450132e-05 3.007015e-06 0.24538572
0.008828743 0.052231964 0.17472227 -0.40878558 0.20759672 -0.24973363 4.990203e-05 -0.0968487
0.24994634 -0.047356233 -0.18450077 0.3898413 0.19091406 -0.027823493 0.6762765 0.046594616
0.00046796605 -0.052495614 0.20805275 0.02477893 -0.3576638 -0.013645802 2.4339402e-05 -0.008589735
0.20213234 0.09601463 -0.272813 0.46187043 0.13956147 -0.22966658 1.2074397 0.016302284
-0.2210953 0.18470533 -0.052504387 0.24230768 0.07307532 -0.31637034 0.022946412 -0.44136485
0.5069295 0.32835943 -0.31772196 -0.16072498 -0.26636353 0.14168078 -0.086675085 0.19908638
0.044788726 -0.21491764 -0.00023676202 -0.63699937 0.0633863 0.10496326 -1.1408976 0.6096955
-0.001132395 -0.1666975 0.006431816 -0.059598196 0.1304552 0.23269205 0.0004781062 -0.012270548
00000000: 0923 f0b8 4772 e4bb 6822 ceba 08b3 9936
00000010: 6f42 30bc dce9 e237 881c 5bb8 f830 cf36
00000020: b116 8a3f 28d2 19be bece 493e a561 6e3e
00000030: cce6 cd3b 2f95 99bd 3a21 383f aee2 3b3e
00000040: 9ea9 4abf 8e6f 51be a23e 98bb 7f69 b8bd
00000050: ace2 3f3e 7d15 bfbd dbf0 08bf b813 b33e
00000060: 7784 a4bb ff6d 403e 2730 ff3d c11c bf3d
00000070: 1581 c1bf 2032 703d 22db 933b d61e 8f3e
00000080: b2ef b53d a794 8a3e 168b c8be 926b 85bc
00000090: fcf5 62bc 9347 533e 6728 f23e e27f 0b3c
000000a0: 460a 6f3d 53dd 1b3e 1f00 d23e 4267 66be
000000b0: 382b c6be f0d7 c73e 4bc4 bebd 0c5a 2fbe
000000c0: f25d 03be 3777 e03d 9c98 44be 836b adbc
000000d0: be7b 583d 7d7c 90be 3b31 073b e9c0 e13d
000000e0: acaf d23d ec39 a33e 7b21 5b3c 6dad ccbe
000000f0: c798 5fbe 6bc2 423c 2bd8 04bf 4d54 613e
00000100: 5f9b 6dbe b8f4 033e 6d7f 1e3e d11a bf3e
00000110: 6042 18be 45ac 24bd 8b59 b3be 5e73 84be
00000120: 2a47 6cbf 99f2 983e f30d 56bd c477 3bbe
00000130: e9b5 57be 5bbe ef3d 5ffe c2be 05c3 e8bd
00000140: dc1e 09bd e99b b7bb 24fb 29be 2269 243d
00000150: 57a1 e93d d13e e13c 9d58 aa3b 6647 65bd
00000160: be3a 983e d5a1 d13c 3955 4a3d 28cd ddbe
00000170: 7f32 da3d 48cb 943e d815 1a3f b2b2 82be
00000180: 4fd8 75bd 8ecf 3fbd 912e 6b3e 30a0 1bbe
00000190: 3724 2c3e 8434 f3be 3195 f03a 43ea 50be
000001a0: 2c91 d13d cfc8 19bd f052 703e 421b e4bd
000001b0: e381 153e e587 f4be 39a3 fa3a d6b2 a6be
000001c0: eca9 a036 7cf7 b7bb b867 aab6 f8cb 1636
000001d0: 044f 8abb 60a1 13b5 b68d 4d39 6e5f 32b7
000001e0: 604d 76b8 71cd 5bbc 8bfe 59bc b9b2 98bb
000001f0: 1a2e 73b8 2b11 10bb a643 a6b9 e601 48ba
00000200: cf79 98b9 e778 e6bb 93b8 b3ba 3ae3 ea39
00000210: 0b13 42bc 6c1e e239 7af7 54b8 1479 39b8
00000220: b25f edbd 430b 523e 44fd c1bd 38ca 91be
00000230: fa05 f03c 1269 4bbe df3d 35bb 4208 39be
00000240: 77b8 9238 e2d6 13b6 05e3 cfb6 5371 8336
00000250: 68cd 13bb 518f 8cb7 67a9 8839 ab2a bab7
00000260: 2908 893e 5abf 72be 987f f63b 6709 20bc
00000270: 43fd e03d 9648 c9be e9e3 6c3c f11c 8bbe
00000280: 4ee2 133f ebf1 1ebc 394f df3e 55f3 7dbd
00000290: c3ec afbe 0058 4d3e 06d1 023f afa8 72be
000002a0: c223 21bf 1c81 a4be d11b 30be 13a9 31bd
000002b0: 384a 953e 2957 a23e c41a 3ebd 54b3 743e
000002c0: 83f5 38b9 ff8c 2ebc 0ee4 07bc afe4 00bc
000002d0: 80c7 91bc ed22 13bc 0411 dc38 6fa5 acbb
000002e0: 400f 43b8 1619 1a3e 5b0c 53be 30e2 c23a
000002f0: 0d39 bcbe d86e 72b7 20cc 4936 6546 7b3e
00000300: 6fa6 103c 2ff1 553d 65ea 323e 584c d1be
00000310: 3c94 543e 2cba 7fbe e64d 5138 9c58 c6bd
00000320: eff1 7f3e 9cf8 41bd c5ed 3cbe 4799 c73e
00000330: fa7e 433e 18ee e3bc 7520 2d3f ffd9 3e3d
00000340: 5759 f539 a405 57bd c80b 553e 2ffd ca3c
00000350: b61f b7be a492 5fbc 782c cc37 f6bb 0cbc
00000360: c8fb 4e3e 51a3 c43d 25ae 8bbe 487a ec3e
00000370: 34e9 0e3e b72d 6bbe 628d 9a3f 5e8c 853c
00000380: ce66 62be 6523 3d3e d70e 57bd 811f 783e
00000390: 83a8 953d 4bfb a1be 1dfa bb3c 93fa e1be
000003a0: 22c6 013f ba1e a83e 74ac a2be 1795 24be
000003b0: cd60 88be c414 113e b582 b1bd 4ddd 4b3e
000003c0: 6274 373d 5f13 5cbe 5243 78b9 6412 23bf
000003d0: add0 813d faf6 d63d ef08 92bf 0115 1c3f
000003e0: df6c 94ba c0b2 2abe fcc1 d23b 3d1d 74bd
000003f0: 0c96 053e d346 6e3e 54aa fa39 690a 49bc

bias f4 [64]
0.00010570737 0.0018032604 0.44519654 8.060324e-06 0.000120185374 -0.18262637 -0.008150131 0.9043187
1.0072681 -1.1532836 -0.00069373683 0.0009517275 0.00070727686 -0.015215315 0.00020677004 -2.1764929e-05
0.00021226612 -0.002502467 0.0002297358 -0.0028336872 -0.00056259864 0.5789341 0.00033332364 -1.4053385e-05
0.35662326 -0.78594506 0.00021086741 -1.0781889 -0.7752445 -0.0010842318 1.3638994e-05 -0.000511262
0.002829306 -0.00012045849 -0.0014101734 0.0021075145 0.39780146 -4.2039283e-05 0.003987503 1.0857777e-05
-0.0010395215 -0.0072387364 0.29486033 -3.35222e-05 0.5887242 9.9150966e-05 -4.253853e-05 -1.3752599
-0.00022128737 0.00016340853 -0.00042841135 6.8625915e-05 0.0030949244 -0.7262366 -0.07036962 9.645218e-05
-0.0012202262 3.0117066e-05 -0.00181265 0.04377489 0.18390183 0.002767908 -0.0020433385 -0.47290573
00000000: 36af dd38 615b ec3a cdf0 e33e d43a 0737
00000010: 080c fc38 6802 3bbe 2188 05bc 6e81 673f
00000020: 29ee 803f cc9e 93bf e4db 35ba 5a7d 793a
00000030: 8c68 393a a849 79bc 69d0 5839 d493 b6b7
00000040: c193 5e39 6e00 24bb 3ce5 7039 62b5 39bb
00000050: 5b7b 13ba 0635 143f f1c1 ae39 d4c6 6bb7
00000060: 5397 b63e b233 49bf 4a1c 5d39 1802 8abf
00000070: 6c76 46bf c81c 8eba 08d3 6437 3606 06ba
00000080: e16b 393b a99e fcb8 91d5 b8ba 3a1e 0a3b
00000090: a2ac cb3e 5653 30b8 99a9 823b cc29 3637
000000a0: 8e40 88ba ec32 edbb eff7 963e 309a 0cb8
000000b0: a1b6 163f 45ef cf38 666b 32b8 8408 b0bf
000000c0: 6009 68b9 a558 2b39 669c e0b9 42eb 8f38
000000d0: 37d4 4a3b a4ea 39bf f31d 90bd 5f46 ca38
000000e0: ffef 9fba e8a3 fc37 7196 edba 4d4d 333d
000000f0: c350 3c3e ca65 353b 88e9 05bb b320 f2be

weight f4 [64, 64]
-6.261529e-06 -0.62423116 -0.13188003 0.37099952 0.16206747 0.03385285 -0.020316122 -0.15311491
0.0020737455 0.18439569 0.098652735 0.062533885 -0.032123458 -0.099143885 -4.9462533e-06 -3.523522e-05
5.7263733e-06 0.049870763 -1.8013616e-05 0.00017696773 -0.040467665 -0.020467026 1.2634788e-05 0.0016122215
-0.1875099 0.00015742151 0.0017397577 0.06786987 0.14920743 -0.31301263 -2.2837441e-05 0.075736865
-0.0425174 0.0056511364 0.063801736 0.0412681 0.056141857 -4.3141536e-05 -0.2563572 -1.2525552e-05
8.9738005e-06 0.023404822 0.14251807 0.000119017765 -0.2565907 -9.1912414e-05 -0.014439281 0.024647221
-1.2139764e-05 3.9365717e-05 7.393503e-06 0.00091517036 0.09011286 0.022492329 -0.002403894 1.8968727e-05
-4.1760604e-06 0.016679095 -0.009060066 -0.06117506 -1.6720296e-05 0.010055674 -0.171986 -0.033509452
7.745537e-05 0.00024727092 2.0946816e-05 0.2803744 -0.0027180132 -0.006786621 4.440104e-06 -0.00995399
-0.0039094146 -0.0043010805 1.1790249e-05 2.9097726e-05 3.4991374e-06 9.184809e-06 0.00016575669 0.000163689
0.000103448096 -3.895544e-06 -1.0244548e-06 0.0001841222 0.00041595468 3.7208056e-06 7.477152e-05 7.65023e-05
-0.018181331 -0.004368526 0.00026462384 -0.0014702211 1.2371083e-05 -0.0063463915 8.041263e-06 -2.9508712e-06
-0.01635963 -0.00090730144 -0.014839588 -3.7291495e-06 -0.001498137 -3.8556365e-05 -0.004695441 -0.00017293543
8.325557e-06 0.00020372674 -0.005739779 7.462557e-05 -0.0045712306 2.928621e-05 -1.4751411e-05 -0.00448361
6.958283e-05 -0.00017206513 -9.707354e-05 0.00010125109 -0.0025573329 0.00010423639 -0.010479481 -0.00017882709
-0.00023224382 -5.1542855e-05 -2.3189466e-06 0.0001540206 1.0535021e-05 0.00022804405 -0.0020769925 -0.005676231
-4.024867e-05 -0.011843841 0.0017938489 -1.0196087e-05 0.0039541437 0.00017142852 0.021752127 -0.0030713012
-0.054595757 0.00077931804 0.0065097925 0.008285929 0.008752363 0.037252888 3.0906376e-05 0.00034838822
4.131485e-06 0.007277206 3.3119504e-06 0.009406282 0.00016927159 0.0041085053 -7.998191e-05 3.187165e-05
0.018636018 0.04260283 1.0574062e-05 -0.08095665 0.012779209 0.005136456 0.013143347 0.02617476
0.010650884 0.013127116 0.097913146 0.006570365 -8.9942274e-05 6.2992454e-05 0.0022963432 0.00013933817
0.001721562 4.945266e-05 -0.037689272 9.795709e-05 -0.008264517 -4.2668864e-05 0.0040639476 0.0059993244
-0.00017209572 -4.825375e-06 0.0055137854 -1.7440179e-06 0.0019371945 -0.14182693 -0.0007774934 9.0905676e-05
0.004336525 -0.00014579183 0.005905653 0.07472822 0.059357285 8.4949934e-05 0.010778332 -0.00024511968
1.50930355e-05 -0.012263505 0.0005627665 0.0017540283 -0.011738311 0.04211933 -0.01187166 -0.0055515785
0.0010371483 -0.000652442 0.0025344403 0.03325476 0.01389973 0.035515912 3.683023e-05 3.778901e-05
-1.0925749e-05 0.0010014155 -9.044426e-05 0.00043052743 0.004939924 0.0025757286 3.9302027e-05 -4.646137e-05
0.037100844 -9.926743e-05 -5.050372e-05 -0.0015682763 0.024525708 -0.0022764145 0.009276813 0.0039238534
0.019027134 0.09225413 0.056405872 0.0034383642 -0.00051644794 -8.683184e-05 0.0018477706 -3.4049288e-05
0.0026845946 0.0023307684 -0.001628539 -1.7328333e-05 0.00020231669 -0.0003245858 0.0008254971 -0.014484082
-0.00013963618 -7.1085204e-05 0.000727394 1.4070087e-05 0.002057589 -0.17555827 -0.002671661 -3.8882237e-05
0.0056649516 6.05964e-05 0.0039865416 0.07467783 0.013438509 0.005018006 0.017362649 0.0075097643
00000000: 201a d2b6 9dcd 1fbf 8f0b 07be a6f3 bd3e
00000010: 04f5 253e 49a9 0a3d ff6d a6bc 28ca 1cbe
00000020: ade7 073b 39d2 3c3e 720a ca3d c411 803d
00000030: e393 03bd f30b cbbd fef7 a5b6 88c9 13b8
00000040: 2c25 c036 4945 4c3d f21b 97b7 6a90 3939
00000050: 6cc1 25bd 77aa a7bc 00fa 5337 2d51 d33a
00000060: 9802 40be 8411 2539 9508 e43a 5cff 8a3d
00000070: d5c9 183e 3143 a0be 0893 bfb7 ee1b 9b3d
00000080: ba26 2ebd 2b2d b93b 7caa 823d bd08 293d
00000090: 01f5 653d dff2 34b8 4041 83be d624 52b7
000000a0: 2e8e 1637 78bb bf3c 42f0 113e 2d99 f938
000000b0: db5f 83be 1ac1 c0b8 bc92 6cbc f8e8 c93c
000000c0: e4ab 4bb7 9e1c 2538 b515 f836 0be8 6f3a
000000d0: 178d b83d d541 b83c a68a 1dbb 081f 9f37
000000e0: 1620 8cb6 99a2 883c ac70 14bc b392 7abd
000000f0: 9042 8cb7 8ec0 243c 191d 30be 3541 09bd
00000100: 896f a238 24a4 8139 f2b6 af37 3c8d 8f3e
00000110: b220 32bb 4e62 debb 34fc 9436 0f16 23bc
00000120: 8c1a 80bb 14f0 8cbb bcce 4537 e416 f437
00000130: b9d2 6a36 7418 1a37 f9ce 2d39 eea3 2b39
00000140: 46f2 d838 78b6 82b6 0080 89b5 ed10 4139
00000150: 7e14 da39 f4b2 7936 a7ce 9c38 dc6f a038
00000160: 04f1 94bc da25 8fbb 36bd 8a39 6fb4 c0ba
00000170: 668d 4f37 64f5 cfbb f6e8 0637 9507 46b6
00000180: a104 86bc f8d7 6dba be21 73bc 4d42 7ab6
00000190: 235d c4ba 95b7 21b8 37dc 99bb 0056 35b9
000001a0: ffad 0b37 7b9f 5539 c214 bcbb 4c80 9c38
000001b0: 43ca 95bb a8ab f537 d47c 77b7 3feb 92bb
000001c0: ffec 9138 626c 34b9 f693 cbb8 c456 d438
000001d0: ed98 27bb 7c99 da38 21b2 2bbc 8883 3bb9
000001e0: 7a86 73b9 b82f 58b8 339f 1bb6 9780 2139
000001f0: 92bf 3037 1c1f 6f39 271e 08bb adff b9bb
00000200: aed0 28b8 ab0c 42bc 951f eb3a dc0f 2bb7
00000210: c391 813b 7ec1 3339 8431 b23c e247 49bb
00000220: cd9f 5fbd 264b 4c3a 1950 d53b b5c1 073c
00000230: 1266 0f3c 7c96 183d 78a1 0138 e0a7 b639
00000240: 30a1 8a36 a175 ee3b e042 5e36 ce1c 1a3c
00000250: 7f7e 3139 a4a0 863b f6bb a7b8 ecad 0538
00000260: 90aa 983c 4e80 2e3d 4067 3137 9acc a5bd
00000270: e35f 513c b74f a83b 3157 573c 736c d63c
00000280: 0c81 2e3c 1d13 573c b086 c83d 374c d73b
00000290: 649f bcb8 d11a 8438 3f7e 163b 4e1b 1239
000002a0: 09a6 e13a 646b 4f38 1160 1abd 506e cd38
000002b0: e667 07bc 58f7 32b8 dd2a 853b fb95 c43b
000002c0: 9874 34b9 a8e9 a1b6 fcac b43b 0014 eab5
000002d0: 76e9 fd3a 143b 11be b3d0 4bba 9da4 be38
000002e0: 6919 8e3b b2df 18b9 3584 c13b 1c0b 993d
000002f0: a020 733d 2627 b238 9a97 303c 6883 80b9
00000300: 1838 7d37 deec 48bc 9f86 133a 6ce7 e53a
00000310: 0b52 40bc 5285 2c3d 5a81 42bc 04ea b5bb
00000320: ecf0 873a a408 2bba da18 263b 2536 083d
00000330: b1bb 633c 2279 113d 297a 1a38 a47f 1e38
00000340: bc4d 37b7 ee41 833a e4ac bdb8 6ab8 e139
00000350: 16df a13b 8ecd 283b 3bd8 2438 84df 42b8
00000360: 0ef7 173d cc2d d0b8 f5d3 53b8 9f8e cdba
00000370: 23ea c83c e62f 15bb c6fd 173c ab93 803b
00000380: cbde 9b3c bcef bc3d d809 673d 2e56 613b
00000390: 3c62 07ba 7d19 b6b8 e530 f23a 25d0 0eb8
000003a0: 06f0 2f3b cebf 183b b374 d5ba 505c 91b7
000003b0: f924 5439 2b2d aab9 2c66 583a a54e 6dbc
000003c0: 4d6b 12b9 9413 95b8 96ae 3e3a 900e 6c37
000003d0: 9dd8 063b 8cc5 33be 0917 2fbb 7c15 23b8
000003e0: 0fa1 b93b e428 7e38 89a1 823b b1f0 983d
000003f0: 312d 5c3c 166e a43b 1d3c 8e3c 7814 f63b

bias f4 [64]
-0.28511724 -0.00013060422 -0.00057473563 -0.0022492232 -0.16008428 0.001664492 8.7785236e-05 -0.001319137
-4.8614187e-05 -0.9888468 9.170415e-06 -0.57207555 0.00022503988 1.3373843e-05 -0.0061108056 -0.00027606482
-0.00021480767 -8.053894e-05 -0.61500806 -2.9323652e-05 -3.0833493e-05 0.00011310849 9.730423e-05 1.0681195
0.8247048 2.0341322e-06 0.112258814 -1.9538114e-05 0.00014509348 -6.680326e-05 -2.218529e-06 1.9681425e-05
9.989069e-05 -5.8618614e-05 -0.027976042 -0.00016432701 0.00024274489 -0.00037319784 0.47060692 -0.00202409
-0.00025040726 -4.4912333e-05 7.5952476e-06 5.848862e-05 -0.18845253 0.0010305279 -2.766151e-05 1.1300926
-0.6517862 -3.3683355e-05 0.00041496972 -6.306275e-05 -1.160023 0.82996285 -1.216062e-05 4.2238746e-05
0.38530686 1.148993e-05 -0.003336265 7.843148e-05 0.0012319055 -0.0023992267 -0.00016054737 -0.7933679
00000000: e3fa 91be cef2 08b9 dba9 16ba b467 13bb
00000010: 22ed 23be 152b da3a 5719 b838 e5e6 acba
00000020: 16e7 4bb8 1025 7dbf a2da 1937 8b73 12bf
00000030: aff8 6b39 3860 6037 273d c8bb cbbc 90b9
00000040: ff3d 61b9 04e7 a8b8 2b71 1dbf 10fc f5b7
00000050: 3653 01b8 a834 ed38 d00f cc38 24b8 883f
00000060: db1f 533f 2082 0836 f3e7 e53d c8e5 a3b7
00000070: 3c24 1839 ba18 8cb8 0ae2 14b6 8a19 a537
00000080: 687c d138 42dd 75b8 032e e5bc 324f 2cb9
00000090: 5689 7e39 c4a9 c3b9 64f3 f03e 98a6 04bb
000000a0: 1849 83b9 4060 3cb8 aeda fe36 ad51 7538
000000b0: b3f9 40be c712 873a a40a e8b7 e0a6 903f
000000c0: 76db 26bf 3a47 0db8 4b90 d939 8e40 84b8
000000d0: a27b 94bf 7278 543f 7705 4cb7 8229 3138
000000e0: f146 c53e e0c4 4037 3da5 5abb 957b a438
000000f0: e477 a13a 583c 1dbb 9b58 28b9 291a 4bbf

weight f4 [1, 64]
0.78492194 0.08580217 0.025192562 0.027905487 0.3682785 -1.0775256 5.7196303e-06 -0.21424012
2.6618782e-06 0.48106125 0.1557986 0.8447026 -1.1836451e-05 1.1859744e-06 -0.6472496 -0.021475296
-5.2122336e-06 0.1851593 0.14854333 8.854834e-05 0.21087453 1.393365e-06 0.00680782 -0.658951
-0.4559071 5.89956e-07 -0.7763299 7.869881e-06 -6.6524274e-07 -0.10671286 0.10495337 0.1448525
7.081311e-05 2.458315e-06 0.31503153 -8.375126e-06 -0.6718383 -0.03358907 -0.9899339 0.7819787
0.005719133 5.3678123e-06 0.1539127 0.0011216463 0.75550497 -1.1170983 0.007359022 -0.843365
0.83024347 9.720702e-05 1.2343397e-05 0.00015200395 0.42333424 -0.5698192 -0.007952388 -2.410425e-06
-1.0927722 0.010007734 0.029259257 2.486884e-05 -0.22439717 -0.76947725 -1.7943741e-05 0.2851456
00000000: a5f0 483f 0cb9 af3d a260 ce3c 0c9a e43c
00000010: 008f bc3e 5cec 89bf 40eb bf36 c361 5bbe
00000020: b8a2 3236 a94d f63e ab89 1f3e 6e3e 583f
00000030: 2c95 46b7 c52d 9f35 26b2 25bf f6ec afbc
00000040: bfe4 aeb6 669a 3d3e be1b 183e 07b3 b938
00000050: 7eef 573e a803 bb35 2214 df3b 03b1 28bf
00000060: a86c e9be 785d 1e35 8ebd 46bf e208 0437
00000070: 2293 32b5 468c dabd cbf1 d63d 3754 143e
00000080: 8081 9438 88f9 2436 d04b a13e e482 0cb7
00000090: 98fd 2bbf b194 09bd 4f6c 7dbf c22f 483f
000000a0: 9167 bb3b 281d b436 4a9b 1d3e 3404 933a
000000b0: c668 413f 14fd 8ebf f323 f13b c5e6 57bf
000000c0: d68a 543f 9fdb cb38 7d16 4f37 4063 1f39
000000d0: 44bf d83e acdf 11bf bc4a 02bc c9c2 21b6
000000e0: f6df 8bbf 7bf7 233c 1cb1 ef3c 6d9d d037
000000f0: 5fc8 65be 76fc 44bf e485 96b7 9bfe 913e
