Code/SavedWeights/nn1.pt (torch, 22071 bytes, 5 tensors)

weight f4 [64, 8]
00000000: 3737 90b8 0426 bc39 d410 9438 60df 3db6
00000010: ba93 d337 6a5e 8139 5b13 ee38 6c05 0237
00000020: 7e66 3fb9 5d0e a3bb ba03 65bb f05b 5f38
00000030: 5f1f 9cbb 88dc b1ba 404f 0138 0074 1e37
00000040: 9e7f 95b9 84d9 56b8 f4ad 26b8 68ce 2739
00000050: 937a 83bb 36b9 4738 6636 39b9 c821 b438
00000060: e52b 7639 6fc6 de3d 83b9 ea39 ee04 6d3a
00000070: ef8a 29bf 10f5 cf38 5022 f638 ca5c 573e
00000080: 2c50 17b8 b8e7 d237 0088 d137 9c8e 63b7
00000090: a84e 7bb8 57b7 94b8 5a48 22b8 1abb 5438
000000a0: d806 b037 95cd 0fbb 440b 0938 cca2 e439
000000b0: 0cc6 8bbb 3ed4 f438 5e69 92b9 7cf8 85b9
000000c0: 28dd 32b8 4016 f838 9054 9bb9 2a85 4238
000000d0: 5947 7eb9 8a67 19b8 0c30 c138 ec4d b837
000000e0: 74fa 34bd 773e 673e a768 8abe 58ce 083f
000000f0: cfed bdbd 26e2 033e c3ba a6bf 5149 81be
00000100: 887f c238 8a59 41b9 40cb f9b7 3079 ca38
00000110: 6816 c6ba 4a9e 51b9 2e24 f7b8 65f5 c239
00000120: f65b 75be 3c27 743e f1e1 2fbe fde6 823d
00000130: 4142 74be 0d36 96bc e8bc 62bf 4c01 263e
00000140: e1c7 dcb9 5e62 8337 5921 4137 b66d 4fb8
00000150: 65b9 b8bb e8f9 d1b7 493d a238 308d 0639
00000160: 4c69 73ba 5c1e 44bc 176f 4cbc f740 3cbc
00000170: 38c3 10bc afe7 39bc 66e6 88b9 7796 29bc
00000180: 45a9 9238 fc08 1a38 ca61 8339 1de0 8938
00000190: 5ea6 afb9 00d4 b438 0131 3db9 4f31 bd39
000001a0: bb91 1a38 e62e bdba 4b79 41b9 9035 4e37
000001b0: 6035 acba dbbd 7239 10ca 7db6 a1e8 6eb9
000001c0: 3a1d da38 d02f 64b9 917f 08b9 0707 1438
000001d0: 295d 7eb9 bb5c f738 90a2 fd36 f1a0 9938
000001e0: ecac 2e39 9566 31b9 dc83 94b7 f054 0137
000001f0: 01ab 5338 212c 13b9 cedc 4039 f0d7 94b9
00000200: acc1 e237 a25c 3cba 506b 97ba 9f21 9cb9
00000210: 487f 76ba 1448 6238 fc8c a737 b3da aab8
00000220: 0fbd 5c38 4ea6 a1bc 9c72 7ebc 827d 55bb
00000230: c92e 8dbc d356 fbbb 1f89 0f38 874a 71ba
00000240: 6443 1d37 422d 8237 b0d4 3837 0064 d7b7
00000250: ce26 8cbb 0a21 1d39 3012 0bb9 0087 ae36
00000260: f8da 64b6 13d1 9eba 4c60 ac39 13e9 3ab9
00000270: b8cf 86bb 2574 f739 100f 5c39 4ca7 14b9
00000280: 31fa d5b8 20c6 97b7 c027 1f38 1e02 98b7
00000290: 4a25 8137 b869 3b38 0af7 e638 9e5e bab8
000002a0: 16cc 9538 d5b5 9db7 b41d 6db8 b0be 9138
000002b0: fa7d 3538 1945 f5b8 954e a338 bf86 51b9
000002c0: f2a9 48b9 10fe efba 72de 96ba b832 42ba
000002d0: b926 9eba 075c 7dba 72b7 01b9 de65 91ba
000002e0: 4eb2 b3b8 0cbb a3b9 fc08 d7b7 d091 a738
000002f0: 9ee9 f336 db19 85b8 be26 f538 b34a 5c39
00000300: 2059 b9b8 12c0 19bb bf3b 2d3a f831 3bb8
00000310: 3e12 72bb b402 83b9 6033 d9b8 fe64 3b39
00000320: d0fe 1cb8 9bb8 4638 c490 2238 1bb1 4f39
00000330: 7f14 58ba a819 7537 c077 9936 b09d 3638
00000340: d8ca 0039 b855 d536 f867 2cb7 06e7 d0b8
00000350: 6f76 82b7 a92d 38b9 fe76 09b8 cbec 7d39
00000360: 0019 2eb9 ee50 2ab9 72ad 4e39 ca7a 2c39
00000370: 7103 29b9 3654 b137 da68 9ab8 be06 b4b8
00000380: 58f9 02b8 59b8 85bc 825b 0fbc 5e5c 3939
00000390: 2dd5 65bc 5b12 49b9 4c81 07ba 9a80 37b9
000003a0: e03d ff38 2211 a3b6 fc75 9c37 ef82 b8b7
000003b0: 6c64 56b5 9822 07b6 bf85 1ab9 087b c437
000003c0: 362d b938 2511 58ba 94f2 3cb9 44af 5bb8
000003d0: f7b9 34b9 5863 8738 44ca 43b8 26ca 6939
000003e0: 9cda 96b8 6cb6 7db9 5693 eab8 600e 34b7
000003f0: 5c9c 5db9 9467 2bb9 3df7 2939 d393 d038
-6.87674e-05 0.00035886478 7.0603244e-05 -2.8293216e-06 2.522195e-05 0.0002467514 0.000113523296 7.749866e-06
-0.00018253361 -0.0049760775 -0.0034944848 5.3252967e-05 -0.004764482 -0.0013569752 3.0829804e-05 9.444542e-06
-0.00028514577 -5.1224153e-05 -3.973949e-05 0.00016003253 -0.0040124147 4.761779e-05 -0.0001766324 8.589361e-05
0.0002347674 0.10877692 0.00044770175 0.0009041567 -0.6622762 9.9161756e-05 0.00011736585 0.2103149
-3.607587e-05 2.5141853e-05 2.4978071e-05 -1.3563458e-05 -5.9916318e-05 -7.09134e-05 -3.8691192e-05 5.071899e-05
2.0984022e-05 -0.0021942605 3.2673837e-05 0.00043608842 -0.0042655524 0.0001167436 -0.00027925795 -0.00025552872
-4.2644475e-05 0.00011829706 -0.00029626908 4.6377223e-05 -0.00024249907 -3.657447e-05 9.2119066e-05 2.1970794e-05
-0.044184163 0.22582422 -0.27032968 0.53439856 -0.09273874 0.12879238 -1.3025745 -0.25251248
9.2743954e-05 -0.0001843927 -2.9777759e-05 9.6546835e-05 -0.0015112879 -0.0001999076 -0.00011784617 0.00037185397
-0.23960862 0.23843092 -0.17176034 0.06391714 -0.23853399 -0.01833632 -0.885695 0.16211432
-0.0004211059 1.5662223e-05 1.1511461e-05 -4.9454822e-05 -0.005637335 -2.5031113e-05 7.736177e-05 0.00012831832
-0.0009285405 -0.011970129 -0.012477658 -0.011490098 -0.008835606 -0.011346742 -0.00026111602 -0.010350815
6.9933514e-05 3.672483e-05 0.00025059126 6.5744134e-05 -0.00033502554 8.622557e-05 -0.000180427 0.00036085627
3.6852183e-05 -0.0014433532 -0.000184511 1.2291028e-05 -0.0013138466 0.00023149645 -3.7817554e-06 -0.0002278411
0.00010400494 -0.00021761586 -0.00013017493 3.5292494e-05 -0.00024258032 0.0001179515 7.5589123e-06 7.325586e-05
0.00016658352 -0.0001691825 -1.7704377e-05 7.708775e-06 5.046558e-05 -0.00014035452 0.00018392803 -0.00028389646
2.7031485e-05 -0.0007185434 -0.0011552367 -0.00029779688 -0.00094031217 5.3949727e-05 1.9973602e-05 -8.1469676e-05
5.2628162e-05 -0.01973262 -0.015530255 -0.003257603 -0.017234223 -0.0076702624 3.422156e-05 -0.0009204526
9.37362e-06 1.5518282e-05 1.1016775e-05 -2.5676563e-05 -0.004277087 0.00014984995 -0.00013262848 5.20132e-06
-3.4102104e-06 -0.0012116752 0.00032878143 -0.00017825169 -0.0041141175 0.00047198046 0.00020986446 -0.00014176703
-0.00010203233 -1.8092862e-05 3.7945574e-05 -1.8120798e-05 1.5395362e-05 4.4682733e-05 0.00011013269 -8.886795e-05
7.1428876e-05 -1.880053e-05 -5.6532866e-05 6.949657e-05 4.3271088e-05 -0.00011695381 7.787083e-05 -0.0001998199
-0.00019136796 -0.001830997 -0.0011510386 -0.00074080704 -0.0012065984 -0.0009664897 -0.00012370737 -0.0011092981
-8.568597e-05 -0.00031229143 -2.5634181e-05 7.99034e-05 7.269161e-06 -6.34675e-05 0.00011689727 0.00021008663
-8.838088e-05 -0.002346043 0.0006608329 -4.463081e-05 -0.0036937143 -0.0002498828 -0.00010356936 0.00017871332
-3.743061e-05 4.7378806e-05 3.8758633e-05 0.00019807035 -0.00082428 1.46091115e-05 4.573696e-06 4.353904e-05
0.00012282596 6.3578736e-06 -1.0276206e-05 -9.961244e-05 -1.5552358e-05 -0.00017564617 -3.2774165e-05 0.00024216172
-0.00016603246 -0.00016242612 0.00019710304 0.00016448941 -0.00016118378 2.1139258e-05 -7.362822e-05 -8.584325e-05
-3.1226635e-05 -0.016323255 -0.0087498445 0.00017677384 -0.014027876 -0.00019175692 -0.0005169108 -0.00017500148
0.00012170873 -4.859773e-06 1.865159e-05 -2.199548e-05 -7.9867345e-07 -2.0136704e-06 -0.00014736409 2.3422312e-05
8.8299086e-05 -0.0008242301 -0.00018019445 -5.2376898e-05 -0.00017235415 6.455806e-05 -4.6679997e-05 0.00022295918
-7.1932765e-05 -0.00024195918 -0.00011185433 -1.0732183e-05 -0.00021134451 -0.00016346417 0.000162092 9.945747e-05

bias f4 [64]
00000000: 009d 1eb9 9064 6239 c89c 3f38 98a8 66b9
00000010: 007e 9038 adb2 59b8 2810 15b8 6cea 5fb9
00000020: 5e32 0a39 33e0 88b9 a0a6 c535 249b bcb7
00000030: dc44 8739 14b9 ad39 3e13 8db8 88c1 0db9
00000040: 1288 b539 0080 6eb4 dc6e 0a39 6c5e f038
00000050: 8e91 b938 524e 5338 2cab 4d39 5b21 afb8
00000060: 6e03 1239 5053 d335 4050 6235 0071 28b9
00000070: 2d13 3ab9 f2be 7739 1e5c c3b8 a047 bdb8
00000080: 2410 fbb8 96ef 8b38 44e1 7f39 6d5c 47b8
00000090: 12ad 073a 401d d436 22b8 ebb8 cfe3 8239
000000a0: 4232 7738 a6e4 32b8 05f9 d4b9 4073 06b6
000000b0: 4059 1039 3f38 f9b8 2499 adb7 ba1e 00bf
000000c0: 587d 8339 46c5 1c39 3e3f 4b39 1cf1 c1b7
000000d0: aa80 d9b8 18a5 0138 205b 15b8 3748 a538
000000e0: 906f 90b8 8a4f bbb9 9629 4138 026b bb36
000000f0: 0aa7 d3b9 0ca0 2c38 0a9b 0ab9 f816 39b9
-0.00015126541 0.00021590502 4.5683963e-05 -0.00021997315 6.8899244e-05 -5.1903236e-05 -3.5539415e-05 -0.00021354266
0.00013179469 -0.00026106983 1.4726138e-06 -2.248359e-05 0.0002580051 0.00033135025 -6.726988e-05 -0.00013518904
0.0003462439 -2.2212043e-07 0.00013202004 0.00011461679 8.848599e-05 5.037926e-05 0.0001961409 -8.350863e-05
0.00013924923 1.5744972e-06 8.430834e-07 -0.00016063824 -0.00017745486 0.00023626888 -9.315483e-05 -9.0255635e-05
-0.00011971619 6.672663e-05 0.00024402613 -4.7531375e-05 0.0005175631 6.3214975e-06 -0.000112399706 0.00024965263
5.8936195e-05 -4.2651453e-05 -0.00040621325 -2.003464e-06 0.00013766158 -0.00011883722 -2.0694519e-05 -0.50046885
0.00025079655 0.0001495081 0.00019383148 -2.3119668e-05 -0.00010371332 3.0909752e-05 -3.5609235e-05 7.881264e-05
-6.887235e-05 -0.0003572668 4.6053516e-05 5.5854916e-06 -0.0004036951 4.115705e-05 -0.00013218462 -0.00017651531

weight f4 [64, 64]
00000000: b61b 2a39 d6d5 0c39 8eec 5339 b0c7 06b6
00000010: 897c c038 f6fd 8d38 9d4b 6d39 007c 2cb2
00000020: 56b4 20b7 df22 7fb9 c80e 9db8 2f12 5ab9
00000030: ec64 0339 67c4 adb7 26e1 b1b8 ee2c 1fb8
00000040: 6070 ec38 df15 e638 816e 9a38 4480 23b9
00000050: 47d1 27b9 f42c 0539 d7e6 00b9 fdf8 80b9
00000060: 2013 d1b7 e01a 0bb8 9895 a3b8 e592 5539
00000070: 064a 27b9 cf59 1db8 1a6c 3239 e83e 33b9
00000080: e056 9139 8168 d4b8 98d0 6f38 2adb 5d39
00000090: 473c 1239 18e9 5838 40a8 29b9 3018 e937
000000a0: 85fc 8139 7fb5 4139 267e 03b8 e921 93b8
000000b0: 3fb4 c2b8 e8b1 7bb8 c653 97b9 d0c1 ec36
000000c0: f6ea 5339 9929 9b38 81f6 3339 5950 99b8
000000d0: 2870 19b7 b2fa 9cb9 a8c0 4739 cf97 dfb8
000000e0: e01f 73b8 864e 4838 7218 d2b8 ff1e 3e39
000000f0: a81f f337 646e 60b9 759f d938 4a29 8339
00000100: a1d3 0a39 12de 3d39 10b5 d8b6 4f55 c9b8
00000110: 101a 48b9 5f95 5d38 0591 8438 1609 38b9
00000120: 60ad 0639 688a ccb8 d353 3cb9 0677 94b8
00000130: cf44 43b7 d848 b138 980e 6ab9 9a03 cab8
00000140: 8f84 4ab8 c785 be38 c3de 0039 69a7 9ab8
00000150: a490 40b9 f9d8 7639 409b f8b6 2710 02b9
00000160: ac65 08b9 4488 1238 302d d535 3158 3d39
00000170: fb8d 4a38 073f 5039 dab9 f6b7 5a43 62b8
00000180: 49c2 40b9 de3c cf38 66a4 49b9 94c6 5139
00000190: fe22 ea38 343d 1fb9 51ca 0eb9 d011 6eb9
000001a0: 1c7e 22b9 5088 f437 4b80 b438 656e b738
000001b0: 1077 3c39 96f2 fa38 08f3 43b9 9f13 74b9
000001c0: 2a6e 85b9 dbe6 92b9 a88e 3cb8 f227 84b9
000001d0: 9f55 5039 49cb 69b9 cece f2b8 c347 57b8
000001e0: c818 f9b8 4021 52b9 0fd1 2039 b2e2 afb7
000001f0: fca7 f6b8 5014 b4b8 8ca3 81b9 0c08 d9b6
00000200: 102f 2f36 291f a038 4426 29b8 e0ec 8c39
00000210: b29b 4d39 4d12 5939 9aba 3739 9a3f ee38
00000220: 70a8 5239 98aa b7b8 a685 a7b8 c6e5 c138
00000230: 95c0 cdb8 521c 6e38 cbda 97b8 ffc3 3cb9
00000240: a4cb c6b6 164d 4539 94ab 3839 e221 17b8
00000250: 18f6 2639 f5b9 1fb9 d8b3 31b9 a215 adb8
00000260: 32d4 c0b8 4c98 1db9 fb7c f7b8 547b 0638
00000270: 7a15 50b8 04f9 26b8 54a9 2fb9 1b4a 34b9
00000280: cc8c 2939 07a6 c638 f3bd cbb8 3496 e338
00000290: ac9b 36b9 9c82 d3b8 e4f8 6c39 ef59 bb38
000002a0: ec0e 4939 0573 f0b8 a8a2 5bb7 1d25 0738
000002b0: 8cfd c4b8 b03a 1036 4baf 7ab9 bbd5 3bb7
000002c0: c40e 6f39 faa2 4239 5a4c 09b8 8c53 7c39
000002d0: d489 bc38 cf74 f138 0e50 e7b7 1897 03b9
000002e0: 3559 8bb9 ae46 7e38 ada6 4239 3dff b3b7
000002f0: 9ec4 c5b8 3578 4b39 3a80 c4b8 13ae d7b8
00000300: 0094 41b3 deae 00b9 5498 adb6 0636 71b9
00000310: 30ab 9fb8 fc89 3a39 24f3 0ab9 a86f bb38
00000320: 0be4 46b9 e57d e6b7 f3f6 7ab9 f408 e1b6
00000330: 591f 6ab9 e4a0 aa38 bca8 3736 3041 32b9
00000340: e06f cb36 f174 8e39 ea74 7839 fa8e d6b8
00000350: bddf d237 12e8 53b9 71d9 c638 ba88 6638
00000360: 6cb0 2bb9 f8ed d236 bbaa 46b9 a926 8139
00000370: 366c 4c39 87c5 3b38 460f 59b8 bc16 1d39
00000380: 1f7a c338 3cf1 fe38 5f32 88b8 9908 5639
00000390: 40fa 68b7 c569 18b9 a821 cc38 3d22 0838
000003a0: ac48 3039 8890 26b8 4350 3339 f25b 8d38
000003b0: aaf0 b937 d2ab b4b8 687e 5eb8 0d05 00b9
000003c0: 97ca 2c39 da6a b5b9 c087 2838 847f cdb8
000003d0: f3d2 a7b8 9337 3fb9 b4ae 45b8 e48e 45b8
000003e0: b77b 5539 a82b 2a38 5296 5039 c841 26b9
000003f0: f2cf 75b8 7f21 16b9 6658 4539 0360 45b9
0.00016222787 0.000134311 0.00020210652 -2.008379e-06 9.17847e-05 6.770708e-05 0.0002263025 -1.0039912e-08
-9.578731e-06 -0.00024331686 -7.4890966e-05 -0.00020796874 0.0001253073 -2.0714664e-05 -8.481955e-05 -3.7950398e-05
0.000112742884 0.000109713284 7.363875e-05 -0.00015592674 -0.00016004323 0.00012700615 -0.00012293026 -0.00024599573
-2.4923647e-05 -3.316521e-05 -7.80031e-05 0.00020367985 -0.00015953937 -3.7515358e-05 0.00017015674 -0.00017094205
0.00027721282 -0.00010128413 5.717631e-05 0.00021157847 0.000139461 5.17155e-05 -0.00016179774 2.7787028e-05
0.0002479294 0.00018473527 -3.135032e-05 -7.0158225e-05 -9.284214e-05 -6.000875e-05 -0.0002886338 7.055911e-06
0.00020210058 7.398724e-05 0.000171626 -7.3105744e-05 -9.145624e-06 -0.0002994142 0.00019049889 -0.00010661745
-5.79654e-05 4.7756846e-05 -0.000100181336 0.00018131359 2.8982598e-05 -0.00021403428 0.000103770675 0.0002501703
0.00013239543 0.00018107172 -6.45838e-06 -9.600317e-05 -0.00019083195 5.282962e-05 6.3212625e-05 -0.00017550992
0.00012843823 -9.753258e-05 -0.00017960304 -7.07936e-05 -1.16389265e-05 8.453586e-05 -0.00022321416 -9.6327814e-05
-4.8284008e-05 9.084824e-05 0.00012290016 -7.374475e-05 -0.0001836443 0.00023541217 -7.4090494e-06 -0.00012403783
-0.00013007846 3.493602e-05 1.5882888e-06 0.00018057298 4.8292783e-05 0.00019859905 -2.941203e-05 -5.3945325e-05
-0.00018382924 9.8818666e-05 -0.00019230097 0.0002000577 0.00011164507 -0.00015186222 -0.00013617544 -0.00022704084
-0.00015496503 2.9150542e-05 8.606965e-05 8.7466826e-05 0.00017973431 0.00011966114 -0.00018687185 -0.00023276963
-0.00025449815 -0.0002801929 -4.4955552e-05 -0.00025206764 0.00019868322 -0.00022296341 -0.000115779796 -5.1326828e-05
-0.00011877861 -0.00020039547 0.0001533667 -2.0967189e-05 -0.000117614836 -8.586852e-05 -0.0002472665 -6.4680407e-06
2.6104426e-06 7.6351986e-05 -4.0328378e-05 0.00026879366 0.00019608325 0.0002070155 0.00017521754 0.00011360571
0.00020089909 -8.7578956e-05 -7.9880745e-05 9.245756e-05 -9.811033e-05 5.6769997e-05 -7.2409945e-05 -0.00018002091
-5.9245667e-06 0.00018816101 0.00017611525 -3.603276e-05 0.0001592267 -0.00015232696 -0.00016947032 -8.253312e-05
-9.194798e-05 -0.00015029422 -0.00011801157 3.2062948e-05 -4.9611066e-05 -3.9809398e-05 -0.0001675238 -0.00017193744
0.00016169547 9.472301e-05 -9.715175e-05 0.00010852181 -0.00017414865 -0.00010085592 0.00022599433 8.933606e-05
0.00019174413 -0.00011465516 -1.3091289e-05 3.2221073e-05 -9.393235e-05 2.1491833e-06 -0.0002390716 -1.1195832e-05
0.00022798317 0.00018561995 -3.2734453e-05 0.00024063716 8.990211e-05 0.00011513533 -2.7574624e-05 -0.0001254942
-0.0002657861 6.0624145e-05 0.00018563373 -2.1457317e-05 -9.430315e-05 0.00019404369 -9.369892e-05 -0.00010284423
-4.507092e-08 -0.00012272174 -5.173535e-06 -0.00023003676 -7.613597e-05 0.00017789745 -0.00013251283 8.9376525e-05
-0.00018967704 -2.747676e-05 -0.00023933854 -6.706565e-06 -0.00022327657 8.1362e-05 2.7367341e-06 -0.00016999687
6.0628954e-06 0.0002717148 0.00023694677 -0.00010230947 2.5138137e-05 -0.00020208981 9.481877e-05 5.496361e-05
-0.00016373553 6.286191e-06 -0.00018946354 0.000246336 0.00019495268 4.4768236e-05 -5.1751056e-05 0.00014981156
9.3210714e-05 0.00012156597 -6.494368e-05 0.00020411833 -1.38865435e-05 -0.00014535252 9.733747e-05 3.2456814e-05
0.0001681174 -3.971209e-05 0.0001710067 6.74053e-05 2.2165787e-05 -8.615073e-05 -5.304665e-05 -0.00012208913
0.00016478669 -0.0003460262 4.018075e-05 -9.7989134e-05 -8.002473e-05 -0.00018235882 -4.7131165e-05 -4.7101537e-05
0.0002035935 4.0571816e-05 0.00019892424 -0.00015855499 -5.8606216e-05 -0.00014317593 0.00018820315 -0.00018823151

bias f4 [64]
00000000: 4453 2db9 809d b135 dc86 cc37 30f5 8338
00000010: 4c58 90b8 0747 25b9 8d45 a5b8 49f4 dc38
00000020: d0e6 d2b7 00fd 5838 3012 a236 acdd 4bb8
00000030: 6095 f736 c370 ec38 7db1 ecb8 a20a 95b9
00000040: ff64 d7b8 59df a4bf a664 ac39 18be 8d38
00000050: b877 9d38 82cd 97b8 bff5 fe38 fcab dd3f
00000060: 88f1 30b7 9a5b 0338 bc62 4638 70e4 0839
00000070: e970 00b9 0c75 60b8 ed3c 5139 da7e 9638
00000080: be49 3eb9 7453 0839 e0b3 6e39 ee9f 3838
00000090: e45a 45b8 0ed8 17b9 b6ac 0339 1cdd 0ab9
000000a0: 4926 3a39 d2c6 4d39 b6a0 0db8 e01e bfb7
000000b0: 84ab 1239 db82 3e3f d293 4039 7cf1 5d38
000000c0: 9a24 3ab9 f15f 4f39 2071 c0b6 8038 a535
000000d0: c6a1 5bb8 ce1a 1c39 d8f3 5fb8 80c8 7736
000000e0: 380c ad36 6885 2f39 c025 3d35 3477 ddb9
000000f0: d464 3938 5185 1039 ef76 90b8 5437 9bb6
-0.00016529585 1.3233366e-06 2.4381494e-05 6.2922365e-05 -6.882902e-05 -0.00015762086 -7.880768e-05 0.00010535919
-2.5141431e-05 5.1734038e-05 4.8300935e-06 -4.860542e-05 7.378563e-06 0.000112743604 -0.00011286417 -0.00028427417
-0.00010270811 -1.288066 0.00032881385 6.758812e-05 7.508643e-05 -7.23852e-05 0.000121574376 1.731811
-1.0546653e-05 3.1318144e-05 4.7298832e-05 0.0001305507 -0.00012249094 -5.351477e-05 0.0001995449 7.176185e-05
-0.00018147283 0.0001300106 0.00022764457 4.4017965e-05 -4.705311e-05 -0.00014480969 0.00012557473 -0.00013243075
0.00017752605 0.0001962439 -3.3766693e-05 -2.2783352e-05 0.0001398754 0.7441842 0.00018365614 5.2915406e-05
-0.00017751977 0.000197768 -5.7352154e-06 1.2309902e-06 -5.2364332e-05 0.00014887305 -5.339444e-05 3.6922575e-06
5.157224e-06 0.00016738998 7.046292e-07 -0.00042241218 4.420134e-05 0.00013782574 -6.888608e-05 -4.625801e-06

weight f4 [1, 64]
00000000: 5469 18b9 8bac 8cb9 21f0 0ab8 7196 0639
00000010: 251b aa38 fc37 2b38 90ab 4fb9 596f 8439
00000020: aa92 d3b8 2232 81b9 0ea3 8937 0460 46b8
00000030: aadf cab8 0233 4ab9 5ca9 1139 61af 81b9
00000040: 101c 61b9 bffd da3f 561a 4e39 8eba 8738
00000050: 3462 1db8 02ba c9b8 8d25 47b9 e84a 6ec0
00000060: 2044 9b38 d64b 2d39 ca43 61b8 d00a 56b9
00000070: a0c8 9a37 f4cc 5538 f77e 35b9 b62e a738
00000080: c075 a6b7 cad0 5fb9 da31 3eb8 40fb 5d39
00000090: b00e f639 b850 5cb8 abf6 0db8 3b7b 2cb9
000000a0: b26f 8b37 d010 94b8 58a8 dbb7 145c 2039
000000b0: 395e 17b9 48f0 57c0 c00a dfb6 d84c 8bb9
000000c0: e7dc 5d38 11ae d639 979f 43b9 9653 a039
000000d0: 47da b0b8 4835 15b9 8510 1f38 5ed4 12b8
000000e0: 3183 35b9 b8fd 4038 c67c 93b8 b52a c839
000000f0: 401f a1b7 00d3 4439 c4f7 1738 aad4 a6b8
-0.00014535087 -0.00026831435 -3.31254e-05 0.0001283528 8.111288e-05 4.0821717e-05 -0.0001980497 0.00025259962
-0.00010088582 -0.0002464215 1.6407601e-05 -4.72963e-05 -9.673771e-05 -0.00019283223 0.00013891369 -0.00024735465
-0.00021468126 1.7108687 0.00019655502 6.47205e-05 -3.7523176e-05 -9.6190735e-05 -0.00018992108 -3.723322
7.403665e-05 0.00016526817 -5.3707314e-05 -0.00020412658 1.8451654e-05 5.0974035e-05 -0.00017308803 7.971881e-05
-1.9843574e-05 -0.00021344717 -4.5345958e-05 0.000211698 0.0004693172 -5.2527263e-05 -3.3846747e-05 -0.00016449105
1.6622103e-05 -7.0603215e-05 -2.6185226e-05 0.00015293091 -0.00014435583 -3.3740406 -6.6471694e-06 -0.000265694
5.2896237e-05 0.0004094695 -0.00018656101 0.00030579855 -8.432991e-05 -0.00014229596 3.792394e-05 -3.5006895e-05
-0.00017310378 4.601266e-05 -7.032747e-05 0.00038178792 -1.9207248e-05 0.0001877062 3.6231955e-05 -7.9551086e-05
