Code/SavedWeights/nn1.pt (torch, 22071 bytes, 5 tensors)

weight f4 [64, 8]
0.44614008 0.024220834 0.009207297 0.24960512 -0.0032195747 -0.027272537 3.024427 -0.14852922
-0.47114015 0.24841239 -0.33229223 0.29266348 -0.039052743 0.25524506 0.001243036 -0.37540105
0.47046396 -0.04958252 0.06086708 -0.0033654086 -0.025230769 -0.089878306 0.6930138 0.10103525
-0.09880778 0.16603743 -0.40658683 0.060948815 0.05628362 -0.18651655 0.9366943 0.4475963
0.02074038 -0.071742825 -0.30887318 -0.07508436 0.21200757 -0.34035945 0.0016497532 -0.3359003
-0.00016847532 0.00029562457 -0.000188904 -0.00095423847 -1.1605036e-05 -0.00096983387 -1.5323109e-05 -0.0006685002
-0.868482 0.0764645 0.028379174 0.3411626 -0.10848968 0.24507326 -1.8728919 -0.16127655
-0.0007080974 -0.13715361 -0.056461528 -0.3392548 0.077818096 0.41175315 5.1843013e-05 -0.16537024
0.019454192 -0.4215365 0.10888964 0.4163246 0.24872018 -0.37099192 -0.68384945 -0.24068332
-0.0022511175 0.30472 -0.3939557 -0.37093207 -0.12965387 -0.3704583 -1.35967275e-05 0.32654107
0.00028130732 -0.09354073 -0.17804894 0.3135847 0.11809029 0.05432922 1.120327 0.016585846
-3.282255e-05 -0.0013296964 -4.8889728e-05 -4.7254463e-05 -0.00056140014 6.148066e-05 -0.00013798094 -0.00012398329
-0.000102319325 -2.2604954e-06 2.7893911e-05 -0.00011669628 -0.0065224213 -3.4595832e-06 -3.393809e-05 -6.375829e-06
0.00015261649 -0.0074376967 -1.2632568e-05 2.823249e-06 -0.0062628156 3.7233463e-06 2.2946417e-05 -1.0555673e-05
4.719374e-05 -0.0001986472 -5.9931343e-05 2.3833236e-06 -0.00013576013 2.1597216e-05 2.1910833e-05 4.2216278e-05
-0.003026893 0.093579054 -0.09815545 0.19537279 0.020654347 0.09063581 -0.010130201 -0.5935046
-1.0127815 -0.14000757 0.3082354 -0.37201166 0.10676615 0.11343025 -0.60514146 -0.20820278
0.8640554 -0.09050109 -0.12245549 -0.03142511 0.03820512 0.28846455 -0.0029939294 -0.020466177
-1.9768893e-05 -3.6784313e-05 4.2456727e-06 1.2850035e-05 -0.0001299949 8.852308e-06 -0.00023166806 1.0051891e-05
1.4789655e-05 0.013153353 -0.21634193 -0.04733468 -0.04709981 0.18555115 -1.2878421e-05 0.23513909
-3.9088945e-06 -0.034255102 0.06338906 5.2738474e-06 -0.40388247 -3.7826908e-07 2.9140183e-05 0.23616531
0.4194183 0.017564217 -0.0683327 0.041728213 -0.15257673 -0.15589842 -0.40141392 0.6189896
-0.4553119 0.17249882 0.2836967 0.14411111 -0.17067598 0.20164025 -1.0149565 -0.677792
0.28155005 -0.31082052 0.10371105 0.1536082 -0.038512714 0.41182193 -0.0038108125 0.5363756
-0.48962438 -0.28110424 0.44822833 0.1312286 0.010791142 -0.11904903 0.33268356 -0.08675676
-0.3940445 0.17432837 0.095582254 0.027986908 -0.13037081 0.07199675 2.1020746 0.17355217
-0.16820344 -0.08033673 0.10793987 -0.15409972 -0.047557376 -0.14391856 -0.0038325319 0.6992013
8.39357e-06 -3.075149e-06 -1.6843524e-05 9.970768e-06 -8.05495e-06 7.753827e-06 0.00017443403 -7.9046395e-06
-0.19781412 -0.010797098 0.23559809 0.28989473 -0.40835848 0.20106186 -2.111306 0.41826499
0.16450375 -0.025633559 0.26474732 -0.28048855 0.014420567 0.13587113 0.0042044097 -0.38674772
2.3722396e-05 -0.023089213 -0.014102401 -2.0205734e-06 -0.0055937963 -4.419849e-06 2.0301086e-06 2.9398807e-06
2.7780196e-05 5.5505147e-06 -2.0994667e-05 -6.264054e-06 -1.3617381e-06 -8.9806035e-06 -0.000103700455 -2.5865807e-05
00000000: 796c e43e c56a c63c 34da 163c 7c98 7f3e
00000010: 80ff 52bb a86a dfbc 3690 4140 0b18 18be
00000020: 4839 f1be d15f 7e3e 3522 aabe fdd7 953e
00000030: c5f5 1fbd 7baf 823e 5eed a23a 9134 c0be
00000040: a7e0 f03e 0a17 4bbd c24f 793d 308e 5cbb
00000050: c2b0 cebc 1e12 b8bd 5a69 313f 92eb ce3d
00000060: bc5b cabd b705 2a3e 262c d0be 77a5 793d
00000070: a789 663d 32fe 3ebe 33cb 6f3f 582b e53e
00000080: bbe7 a93c e7ed 92bd a024 9ebe d4c5 99bd
00000090: 8318 593e 9843 aebe 883c d83a 20fb abbe
000000a0: c0a8 30b9 0ffe 9a39 8814 46b9 dc25 7aba
000000b0: 40b3 42b7 733c 7eba 208a 80b7 4a3e 2fba
000000c0: d654 5ebf 6b99 9c3d 717b e83c ddac ae3e
000000d0: d62f debd 7cf4 7a3e ecba efbf ae25 25be
000000e0: 9d9f 39ba ff71 0cbe 3444 67bd ceb2 adbe
000000f0: 185f 9f3d 4fd1 d23e 0372 5938 d156 29be
00000100: 665e 9f3c a2d3 d7be 8801 df3d 7f28 d53e
00000110: 81b0 7e3e a7f2 bdbe c210 2fbf b075 76be
00000120: 7c87 13bb 4304 9c3e 90b4 c9be cfea bdbe
00000130: fcc3 04be b6ac bdbe 801d 64b7 6430 a73e
00000140: 6e7c 9339 4892 bfbd 7652 36be 2c8e a03e
00000150: 52d9 f13d 5188 5e3d e066 8f3f 0adf 873c
00000160: f2aa 09b8 3549 aeba f20e 4db8 1833 46b8
00000170: ed2a 13ba 2eef 8038 faae 10b9 8301 02b9
00000180: 4594 d6b8 04b3 17b6 b8fd e937 d7ba f4b8
00000190: 09ba d5bb 302b 68b6 bf58 0eb8 f4ef d5b6
000001a0: ad07 2039 ecb7 f3bb 77f0 53b7 0c77 3d36
000001b0: 4e38 cdbb 9ade 7936 0e7d c037 4518 31b7
000001c0: e4f1 4538 f44b 50b9 ca5e 7bb8 30f1 1f36
000001d0: d55a 0eb9 ab2b b537 28cd b737 6211 3138
000001e0: d65e 46bb 60a6 bf3d b905 c9bd ce0f 483e
000001f0: 4e33 a93c 449f b93d 24f9 25bc ebef 17bf
00000200: d3a2 81bf 255e 0fbe 08d1 9d3e 5078 bebe
00000210: 36a8 da3d 1e4e e83d 8dea 1abf 1c33 55be
00000220: bc32 5d3f a358 b9bd f2c9 fabd 9eb7 00bd
00000230: f97c 1c3d a0b1 933e cd35 44bb afa8 a7bc
00000240: 60d5 a5b7 db48 1ab8 0d76 8e36 7b96 5737
00000250: 3e4f 08b9 6084 1437 eceb 72b9 8ba4 2837
00000260: 1621 7837 2981 573c bd88 5dbe 02e2 41bd
00000270: bbeb 40bd 1f01 3e3e 6610 58b7 4dc8 703e
00000280: 2629 83b6 144f 0cbd 20d2 813d 01f6 b036
00000290: afc9 cebe e814 cbb4 1172 f437 52d5 713e
000002a0: ffbd d63e d5e2 8f3c 04f2 8bbd 34eb 2a3d
000002b0: 133d 1cbe d6a3 1fbe 2086 cdbe 1a76 1e3f
000002c0: a41e e9be 88a3 303e b240 913e dd91 133e
000002d0: afc5 2ebe c87a 4e3e 18ea 81bf c783 2dbf
000002e0: 5427 903e de23 9fbe 7566 d43d 784b 1d3e
000002f0: 82bf 1dbd 53da d23e d3be 79bb e94f 093f
00000300: 0cb0 fabe e5ec 8fbe 2f7e e53e ca60 063e
00000310: 54cd 303c facf f3bd 8055 aa3e 87ad b1bd
00000320: 33c0 c9be 2383 323e a1c0 c33d cd44 e53c
00000330: ed7f 05be 0873 933d 6488 0640 a9b7 313e
00000340: 863d 2cbe 9587 a4bd 940f dd3d 51cc 1dbe
00000350: 86cb 42bd 635f 13be 372b 7bbb dbfe 323f
00000360: 1cd2 0c37 a85e 4eb6 314b 8db7 1f48 2737
00000370: bf23 07b7 6f16 0237 47e8 3639 2b9e 04b7
00000380: c98f 4abe 50e6 30bc a040 713e 156d 943e
00000390: 5d14 d1be 29e3 4d3e a31f 07c0 d426 d63e
000003a0: ac73 283e 78fd d1bc f68c 873e 329c 8fbe
000003b0: 3e44 6c3c cd21 0b3e 25c5 893b cc03 c6be
000003c0: 75ff c637 9725 bdbc c20d 67bc 3099 07b6
000003d0: 2a4c b7bb 374e 94b6 003d 0836 c44a 4536
000003e0: 8409 e937 8f3e ba36 b41d b0b7 d02f d2b6
000003f0: f7c4 b6b5 66ab 16b7 c279 d9b8 66fa d8b7

bias f4 [64]
-0.99270415 0.0022838928 -9.642063e-07 -0.8133894 0.0022868623 -0.00033793587 1.0664306 0.0006375843
6.6858236e-05 0.0004076889 -0.7271667 -7.404486e-05 -0.00011341224 -1.19524775e-05 -0.000114211216 0.001357076
1.3493335 -0.0019740683 8.6112675e-05 0.00015739427 8.199327e-05 -0.0009876136 0.7746615 -0.5543448
-0.7150925 -0.96809524 5.3817777e-05 -4.463001e-05 0.22929367 0.003378542 -0.00034252106 -0.00014861525
-0.0039847 -2.3539116e-05 0.0020132305 0.00015315518 0.78839415 9.0730406e-05 -0.002369607 0.0012694041
-9.5435214e-05 7.735246e-05 -8.595252e-06 -0.00013071214 1.4391633e-05 0.42426157 0.03752901 -0.0022437398
1.2361766 -8.046144e-06 1.4164764 -0.0007904666 8.423556e-05 -4.3885037e-05 0.0017527565 0.5456062
1.8661922e-05 0.00019473117 -0.48028338 -0.0004981229 -0.0061905165 7.687208e-06 0.003406229 -0.0011101848
00000000: dc21 7ebf 5dad 153b e069 81b5 4a3a 50bf
00000010: 2fdf 153b fc2c b1b9 cc80 883f 8f23 273a
00000020: 3e36 8c38 14bf d539 9927 3abf 8848 9bb8
00000030: bcd7 edb8 8087 48b7 ae84 efb8 eadf b13a
00000040: f6b6 ac3f 5f5f 01bb 6497 b438 340a 2539
00000050: cdf3 ab38 d072 81ba 3750 463f 8ae9 0dbf
00000060: 4d10 37bf 17d5 77bf 66ba 6138 1c31 3bb8
00000070: f6cb 6a3e 876a 5d3b 6694 b3b9 9ad5 1bb9
00000080: 1692 82bb de75 c5b7 67f0 033b 4898 2039
00000090: 33d4 493f 8446 be38 694b 1bbb 2262 a63a
000000a0: 6424 c8b8 4938 a238 5434 10b7 c60f 09b9
000000b0: 9873 7137 d038 d93e 05b8 193d b50b 13bb
000000c0: 093b 9e3f edfd 06b7 194f b53f 5137 4fba
000000d0: 9fa7 b038 3311 38b8 c0bc e53a d9ac 0b3f
000000e0: 2c8c 9c37 c030 4c39 b4e7 f5be 7694 02ba
000000f0: d1d9 cabb 4ff8 0037 0a3b 5f3b 9f83 91ba

weight f4 [64, 64]
0.04764519 -0.14251116 -0.032151215 0.056779176 2.3139975e-05 -0.004753995 -0.08301646 -0.00020174908
0.015781095 3.6479369e-06 0.019016527 -2.6454083e-05 3.4706359e-06 3.7625723e-06 -0.00072807865 -0.0045101596
-0.93760264 0.024727363 2.523819e-05 1.0007752e-06 -7.088404e-05 -0.0010662127 -0.1800868 0.086030826
-0.045216996 -0.10124014 0.0045849527 -6.803294e-05 -0.35460147 -0.026412236 1.4495527e-06 2.055431e-05
0.08618444 -1.0123586e-05 -6.087578e-05 0.0066548404 -0.16194487 0.011793273 -0.072685234 -0.0050919293
3.236087e-05 0.0001587288 -5.6461897e-05 4.909109e-05 -0.00019425548 0.018165017 0.20234275 0.07493822
0.04054857 -4.237574e-06 -0.0057902494 -0.004075974 4.363431e-05 -1.8427323e-05 -0.06037949 0.0011584647
2.6265703e-05 -2.0190166e-05 0.04484245 1.9407598e-06 0.4727328 -8.442799e-06 -0.37156656 -0.004180595
3.4359782e-05 0.00011599131 0.00014169654 7.0814804e-07 -4.8697325e-07 5.69206e-06 1.7426528e-05 8.161178e-06
2.838436e-06 -0.00010211945 1.2977444e-05 8.278183e-05 0.00024091754 7.949891e-06 -9.279952e-05 2.0487332e-05
4.6644022e-06 -1.8362873e-05 -0.00017635776 0.0001421401 -0.00013550614 -5.4948414e-05 -5.558646e-05 -6.218266e-06
-0.0002734185 2.9723331e-05 1.6874128e-05 -0.00017957283 -8.524035e-05 -5.771134e-05 0.00014658377 0.0001615354
-3.907285e-05 0.0001676178 1.5483844e-05 -6.4567575e-06 1.3857666e-06 -0.00013425777 -1.8207365e-05 -6.487039e-05
8.378807e-05 0.00017422621 -7.958405e-05 9.315242e-05 -5.1770126e-05 -1.4885172e-05 -9.735049e-07 2.476402e-06
2.2745473e-05 4.1436448e-05 -9.610689e-06 -0.00014959702 0.00015492261 -0.00040892814 -9.390213e-05 -1.4508421e-06
-4.2670752e-05 0.000109136185 1.8532923e-05 6.463869e-06 2.805813e-05 -2.3582137e-05 -3.6497346e-05 1.892292e-05
0.17939776 -0.0033549436 0.005804196 0.080604754 -0.8213368 0.002678374 -0.1897835 -3.3113407e-05
0.03324327 -3.0648567e-05 0.070556365 -0.020313371 1.493556e-05 0.01093443 -0.00033845005 -0.10297709
-0.047197886 0.020220757 -0.000112511 -0.006067865 -0.00019714171 -0.019415846 -0.21475193 0.09769085
-0.08926336 0.14046595 -0.24896471 -2.9211496e-06 -0.37751722 0.0040006936 -9.462067e-06 -3.225721e-06
-0.011232486 0.014513899 -0.035964873 0.0359274 0.00024659123 0.013803867 0.43523398 -1.0733597
-0.04509883 -0.00024522765 7.375334e-05 2.4470848e-05 0.0014653807 -0.3512666 -0.42770302 -0.04411799
-0.16972739 0.00015643753 -0.05468793 -1.9200918e-06 -0.00034520286 -9.63636e-05 -0.02432268 -0.052793037
0.015379453 1.3719642e-05 0.39422974 -0.0003010958 0.30496147 -2.3436209e-05 0.4040325 0.39752874
-1.4857484e-05 -8.4052335e-06 -8.595934e-05 -1.84852e-05 -1.17364325e-05 -0.00019928627 2.54605e-05 6.4769374e-06
-3.6662532e-06 0.00015275052 -6.748546e-07 3.1243566e-05 0.00012610736 -7.812357e-05 -8.938681e-06 -1.4112053e-05
-1.6684839e-05 -8.226285e-06 8.088989e-05 0.00022342891 -0.00018234685 -1.4576653e-06 -3.9834333e-05 -4.3180204e-05
-0.00011560569 1.6260892e-05 3.0591116e-05 -1.7890925e-06 0.00019173264 6.1067076e-05 0.00024038191 -2.5232017e-05
0.0001084098 -0.00018483639 -3.2267417e-07 -8.837458e-05 -1.28435895e-05 0.00015181101 8.917508e-05 7.440918e-06
8.439966e-05 4.066027e-05 -0.00020139744 -4.9215047e-05 7.322307e-05 -3.9529634e-05 -0.00012133977 2.070154e-06
-7.0022244e-05 -8.319832e-06 -2.6952883e-05 0.00011646845 -0.00014064574 -2.1864216e-05 1.6745944e-06 1.6975868e-05
4.1769643e-05 7.63265e-05 8.434114e-06 6.817128e-05 -3.0223166e-05 -1.1270466e-05 0.00015274469 2.1181281e-06
00000000: 9a27 433d 72ee 11be feb0 03bd 4891 683d
00000010: b81c c237 67c7 9bbb 8904 aabd 9b8c 53b9
00000020: 5b47 813c 14cf 7436 8cc8 9b3c b6e9 ddb7
00000030: 12e9 6836 8080 7c36 88dc 3eba f6c9 93bb
00000040: ba06 70bf 0a91 ca3c 9ab6 d337 6052 8635
00000050: 94a7 94b8 29c0 8bba ad68 38be ee30 b03d
00000060: 7535 39bd fe56 cfbd 5f3d 963b e8ac 8eb8
00000070: 538e b5be 795e d8bc 408e c235 0b6c ac37
00000080: 7881 b03d 79d8 29b7 df54 7fb8 d910 da3b
00000090: e0d4 25be 9238 413c ffdb 94bd 33da a6bb
000000a0: 38bb 0738 7070 2639 80d1 6cb8 28e7 4d38
000000b0: 0fb1 4bb9 cdce 943c f032 4f3e 3679 993d
000000c0: 4216 263d 7c30 8eb6 22bc bdbb c08f 85bb
000000d0: fc03 3738 6094 9ab7 7c50 77bd a0d7 973a
000000e0: 2b55 dc37 0d5e a9b7 b8ac 373d 003e 0236
000000f0: 090a f23e 8ca5 0db7 f93d bebe 5ffd 88bb
00000100: 891d 1038 5c40 f338 6094 1439 9017 3e35
00000110: 8cb8 02b5 6cfe be36 2f2f 9237 feeb 0837
00000120: f67b 3e36 f628 d6b8 b3b9 5937 289b ad38
00000130: cf9e 7c39 8660 0537 5d9d c2b8 36dc ab37
00000140: e982 9c36 f809 9ab7 adec 38b9 710b 1539
00000150: a716 0eb9 6978 66b8 8225 69b8 80a6 d0b6
00000160: 9c59 8fb9 5e56 f937 ea8c 8d37 b74b 3cb9
00000170: 10c3 b2b8 140f 72b8 48b4 1939 d461 2939
00000180: 27e2 23b8 90c2 2f39 4de3 8137 20a7 d8b6
00000190: 94fe b935 8cc7 0cb9 05bc 98b7 070b 88b8
000001a0: 61b7 af38 7eb0 3639 5de6 a6b8 d35a c338
000001b0: c023 59b8 54bb 79b7 60a9 82b5 4330 2636
000001c0: 88cd be37 0ccc 2d38 983d 21b7 25dd 1cb9
000001d0: b972 2239 6865 d6b9 52ed c4b8 8eba c2b5
000001e0: 5ff9 32b8 0be0 e438 2677 9b37 36e4 d836
000001f0: 605e eb37 41d2 c5b7 ba14 19b8 a9bc 9e37
00000200: 0cb4 373e 9dde 5bbb 2031 be3b 1b14 a53d
00000210: 2143 52bf a987 2f3b 9b56 42be 40e3 0ab8
00000220: 182a 083d a68c 00b8 db7f 903d 3a68 a6bc
00000230: be93 7a37 5326 333c ff71 b1b9 a7e5 d2bd
00000240: 9252 41bd 00a6 a53c e2f3 ebb8 f1d4 c6bb
00000250: d3b7 4eb9 fb0d 9fbc eee7 5bbe 2412 c83d
00000260: b5cf b6bd 4ed6 0f3e 9bf0 7ebe f808 44b6
00000270: f049 c1be 4018 833b 45bf 1eb7 7779 58b6
00000280: 7608 38bc b4cb 6d3c e74f 13bd 9c28 133d
00000290: ea48 8139 9d29 623c fdd6 de3e da63 89bf
000002a0: 8db9 38bd e691 80b9 06ac 9a38 bf46 cd37
000002b0: 0412 c03a 37d9 b3be e4fb dabe 11b5 34bd
000002c0: 04cd 2dbe 6109 2439 7300 60bd edda 00b6
000002d0: 58fc b4b9 d016 cab8 5b40 c7bc 833d 58bd
000002e0: 1afa 7b3c 6a2d 6637 7bd8 c93e 65dc 9db9
000002f0: e923 9c3e e098 c4b7 59dd ce3e e388 cb3e
00000300: 6844 79b7 3404 0db7 1245 b4b8 aa10 9bb7
00000310: 98e7 44b7 80f7 50b9 0294 d537 7854 d936
00000320: c009 76b6 a82b 2039 a827 35b5 860b 0338
00000330: b03b 0439 46d6 a3b8 58f7 15b7 cec2 6cb7
00000340: 6bf6 8bb7 a003 0ab7 6ea3 a938 3e48 6a39
00000350: 5c34 3fb9 00a5 c3b5 ca13 27b8 641c 35b8
00000360: 5571 f2b8 0068 8837 f64e 0038 c020 f0b5
00000370: d70b 4939 2311 8038 070f 7c39 58a9 d3b7
00000380: 115a e338 a4d0 41b9 003c adb4 be55 b9b8
00000390: cc7a 57b7 752f 1f39 8203 bb38 00ad f936
000003a0: b9ff b038 a28a 2a38 372e 53b9 416c 4eb8
000003b0: 568f 9938 9fcc 25b8 cb77 feb8 faec 0a36
000003c0: e8d8 92b8 6895 0bb7 e018 e2b7 8640 f438
000003d0: 4e7a 13b9 0c69 b7b7 a0c2 e035 6667 8e37
000003e0: d031 2f38 7a11 a038 3e80 0d37 2df7 8e38
000003f0: c187 fdb7 4816 3db7 172a 2039 2a25 0e36

bias f4 [64]
-0.004788908 3.0436706e-05 -1.3046017 -3.241851e-05 0.3477503 1.2429047 -0.20284794 -0.8574438
0.0009517412 -0.0012215619 0.00021102319 -0.19604516 0.0006859565 -0.0014564022 -1.2330445 0.0005191545
0.00029653436 0.103028245 -4.9901835e-05 4.789261e-05 8.241448e-06 0.00014637271 0.00066725636 -0.2875645
-9.7713775e-05 8.9357156e-05 -0.00014157791 0.001216236 -7.044122e-05 -0.00011542013 0.0012011369 0.9995898
-6.3129795e-05 9.001778e-05 0.5680211 0.0002993853 3.8122573e-05 0.47156668 -0.10860504 7.13676e-05
-0.004221959 -0.2346731 -0.0053502847 -9.485248e-06 -0.000217262 -0.00020389429 0.000107073065 9.358751e-06
-0.004859729 -0.0055578286 -0.00025419344 -0.68032706 -0.19703454 -1.6116439e-05 -8.070519e-05 0.00045532384
-8.001225e-06 -0.0001275474 5.2779094e-05 3.2406733e-06 -0.0007646898 -0.05786844 -0.00029224943 0.0001479554
00000000: 46ec 9cbb 5452 ff37 30fd a6bf 1cf9 07b8
00000010: 540c b23e 8017 9f3f 5fb7 4fbe 7081 5bbf
00000020: 457e 793a d11c a0ba 1b46 5d39 10c0 48be
00000030: c3d1 333a c0e4 beba 67d4 9dbf de17 083a
00000040: 2b78 9b39 7900 d33d b04d 51b8 4ce0 4838
00000050: c044 0a37 a07b 1939 d1ea 2e3a a73b 93be
00000060: afeb ccb8 4265 bb38 8874 14b9 1c6a 9f3a
00000070: d8b9 93b8 b60d f2b8 776f 9d3a 1ee5 7f3f
00000080: 8d64 84b8 edc7 bc38 d569 113f d1f6 9c39
00000090: cde5 1f38 3071 f13e 526c debd 30ab 9538
000000a0: 5c58 8abb 254e 70be 7151 afbb d422 1fb7
000000b0: d3d0 63b9 75cc 55b9 6a8c e038 8803 1d37
000000c0: 5d3e 9fbb 721e b6bb 4445 85b9 ea29 2ebf
000000d0: 6cc3 49be ca31 87b7 4540 a9b8 88b8 ee39
000000e0: 003d 06b7 3fbe 05b9 1f5f 5d38 587a 5936
000000f0: 7775 48ba 7507 6dbd 0e39 99b9 7a24 1b39

weight f4 [1, 64]
0.92008585 6.897222e-07 1.2756432 -1.4681204e-06 -1.1334546 -1.1117463 0.5924902 0.84654987
0.48393732 -0.9554649 3.191703e-05 0.74782866 0.09194436 -0.6650761 1.336183 -0.89576435
0.10945021 -1.1949828 1.461902e-06 0.10402073 0.015500465 -2.2019337e-06 -0.92136616 0.664175
-7.580841e-06 -0.00013473065 0.008774335 0.16458657 -7.5034495e-06 -3.2339034e-05 -1.0728184 -0.93964654
-5.2795047e-05 1.1335621e-06 -1.066477 -3.6116413e-05 0.1351621 -1.1459099 0.9262618 -2.2773707e-05
0.48722875 0.9131443 1.0927471 -1.0432157e-06 0.05294743 0.00037074566 0.0076741525 1.4978317e-06
-1.1541675 1.1237961 5.358831e-05 1.2376635 0.9488013 -6.5620084e-06 -1.4936177e-06 1.1490263
-8.4498215e-06 1.2906269e-06 -1.5450338e-05 -0.524723 -0.8070156 1.0437508 -0.8829373 1.9240015e-05
00000000: bf8a 6b3f 5925 3935 4748 a33f 3c0c c5b5
00000010: 0a15 91bf b44d 8ebf 70ad 173f 7eb7 583f
00000020: a2c6 f73e 5999 74bf a6de 0538 b371 3f3f
00000030: 534d bc3d 6d42 2abf 0b08 ab3f d050 65bf
00000040: 6f27 e03d 32f5 98bf 9236 c435 d208 d53d
00000050: aaf5 7d3c efc4 13b6 a7de 6bbf 5f07 2a3f
00000060: ee5e feb6 7c46 0db9 3ac2 0f3c 6289 283e
00000070: 24c6 fbb6 c6a3 07b8 1d52 89bf ad8c 70bf
00000080: 4070 5db8 e624 9835 5182 88bf b47b 17b8
00000090: ef67 0a3e 2dad 92bf 7e1f 6d3f 2a0a bfb7
000000a0: 0c76 f93e d3c3 693f 23df 8b3f 9e04 8cb5
000000b0: 68df 583d a460 c239 7577 fb3b 1b09 c935
000000c0: c3bb 93bf 8dd8 8f3f 02c4 6038 c26b 9e3f
000000d0: a4e4 723f 392f dcb6 5078 c8b5 4b13 933f
000000e0: b5c3 0db7 9a39 ad35 599b 81b7 3f54 06bf
000000f0: 9398 4ebf a099 853f 2e08 62bf 9e65 a137
