Code/SavedWeights/nn3.pt (torch, 22071 bytes, 5 tensors)

weight f4 [64, 8]
1.7150589e-05 -6.667736e-05 -6.3681546e-06 -2.5842339e-05 -0.0028603955 -3.945848e-05 5.406356e-05 0.00011479351
1.2230707 -0.052306727 -0.01572084 0.25246185 -0.013460482 0.00043123114 -0.00053493184 0.00046058602
2.5886286e-05 1.5810765e-06 2.2584636e-05 8.0933794e-05 -2.4035851e-05 8.0612444e-05 -0.00015872646 2.2364955e-05
-3.7237434e-05 0.21794274 0.0015747793 0.0023258964 -1.0880604 0.0011102334 -0.0002695768 0.24892463
0.004159341 0.12132131 -0.481504 -0.08843996 0.02862169 0.5020599 -9.3256385e-05 -0.049413193
-0.0007713975 0.014481634 0.3475945 -0.0021584039 -0.23957266 0.07044822 0.0007080918 -0.0013955588
0.00027185516 0.16719209 -0.08360213 0.0012995383 -0.034261458 -0.27743363 0.0001153956 0.0012888786
-0.0004598968 0.3243361 -0.04913613 -0.2992539 -0.17845179 -0.00068651984 -9.075699e-05 -0.0005229903
-0.69973916 0.11171538 0.00068742014 0.36364427 -0.095440514 0.0005510211 -0.00065108406 -0.1559408
-0.0030178644 0.2676134 -0.17803492 -0.079124026 -0.104463175 0.19029717 0.00029999635 -0.5070161
-7.018258e-05 0.00018479257 -5.2293515e-05 0.00039350736 0.00018389006 4.11208e-06 -2.4066441e-05 0.00024203947
-4.0829967e-05 -0.000930123 -5.6083052e-05 -6.9622256e-05 -0.009825954 0.00013648742 9.53345e-05 4.8347567e-05
0.00024858385 0.000118269294 2.2628665e-06 0.00031754412 5.385409e-05 3.8923263e-05 -0.0002662895 3.3515033e-05
0.0005273939 0.0027164903 0.21898432 -0.0002025156 0.019458322 -0.4586156 0.0004960848 -0.031790596
-3.5940557e-05 -5.620477e-05 -6.47457e-05 2.9248104e-05 4.0102732e-05 -0.0002184521 -0.00010090338 -0.00017083505
0.00013347814 -0.010684558 2.9929492e-05 3.8272905e-05 -0.017788026 6.2644496e-05 0.0001404372 4.9796945e-06
-7.678365e-05 5.2908617e-05 0.00019225467 7.99749e-05 0.00035384198 0.00013649798 -0.00022331433 -5.3723692e-05
0.00012619111 7.241469e-05 2.0223724e-05 6.754705e-05 3.8257742e-05 4.9580696e-05 -0.00010393028 0.00021291553
7.1757677e-06 -0.016034404 0.00071835215 -6.005667e-05 -0.01865663 2.009511e-05 -8.110494e-05 3.732728e-05
3.3187534e-06 -0.002931748 0.0007795852 -0.0006099979 -0.0044479608 -0.0004883606 -0.000148975 -0.0005513958
-0.00017051114 0.000310905 0.00017898573 0.0003373074 0.0013358499 0.00015392253 0.00019493228 -5.1775e-05
-9.4306306e-05 -0.1714425 -0.0020337866 -0.023382934 0.15427111 -0.00017285756 0.00039416336 -0.00082069216
0.000104980805 -3.0768944e-05 0.00015123232 5.1679686e-05 6.308376e-06 3.1055068e-05 6.2453764e-05 2.6659945e-05
3.6246864e-05 0.00011278674 0.00019513833 9.6732765e-05 8.100068e-06 -5.3695752e-05 1.3646655e-05 -1.47748e-05
6.06077e-05 -0.0002525294 0.00012084555 1.0302629e-05 -0.0007019281 1.8065359e-05 0.00016138492 0.00018265445
6.369784e-05 9.4817115e-06 -1.7997678e-05 -0.0002410577 5.772485e-05 -4.2821695e-05 -0.0001784729 -3.989694e-05
-9.4984825e-06 -1.4830406e-05 3.1751374e-06 0.0002501444 -5.7442885e-05 0.00010656049 -0.00020020705 -3.5145797e-05
0.00031086613 0.012043853 0.0026261718 0.3981847 0.004584429 -0.069027364 1.0167768 -0.0625009
0.00012331661 -8.1881386e-05 -5.577189e-05 -7.455723e-05 -4.2045678e-05 -0.00013760383 0.00010460923 -3.077593e-05
0.0015339374 0.37293124 -0.34121895 0.24763507 -0.31027067 -0.001243262 0.0003974784 0.07852809
0.000119075834 0.0001448261 -2.9581031e-05 -0.00026167653 7.124285e-05 -0.00011734807 8.3748135e-05 0.00020475806
-0.00012418308 -2.4078832e-05 -6.4833657e-06 1.2953096e-05 -0.0022668825 3.9379564e-05 -0.00017486287 -6.0483853e-05
00000000: 9cde 8f37 23d5 8bb8 08ae d5b6 00c8 d8b7
00000010: 7975 3bbb 3880 25b8 4ec2 6238 4cbd f038
00000020: 958d 9c3f 943f 56bd fec8 80bc ae42 813e
00000030: 5a89 5cbc dd16 e239 ab3a 0cba cf7a f139
00000040: 6026 d937 6035 d435 2374 bd37 00bb a938
00000050: 99a0 c9b7 7a0e a938 cf6f 26b9 609c bb37
00000060: 642f 1cb8 622c 5f3e d368 ce3a 116e 183b
00000070: 9045 8bbf 4085 913a fc55 8db9 19e6 7e3e
00000080: 154b 883b 4f77 f83d b187 f6be 0220 b5bd
00000090: 0978 ea3c ff86 003f a492 c3b8 7d65 4abd
000000a0: 9c37 4aba 6044 6d3c e8f7 b13e 0274 0dbb
000000b0: 8952 75be 2847 903d 3c9f 393a 2feb b6ba
000000c0: c887 8e39 6734 2b3e 9837 abbd 4555 aa3a
000000d0: be55 0cbd c80b 8ebe 8a00 f238 97ef a83a
000000e0: 4e1e f1b9 620f a63e f742 49bd cf37 99be
000000f0: 11bc 36be 91f7 33ba ca54 beb8 4919 09ba
00000100: 1b22 33bf 08cb e43d fc33 343a 952f ba3e
00000110: 5176 c3bd 6672 103a 83ad 2aba f2ae 1fbe
00000120: 5dc7 45bb a004 893e c94e 36be c70b a2bd
00000130: caf0 d5bd 43dd 423e d448 9d39 cfcb 01bf
00000140: fc2e 93b8 e1c4 4139 bc55 5bb8 aa4f ce39
00000150: 9dd2 4039 80fa 8936 4ae2 c9b7 facb 7d39
00000160: d840 2bb8 7fd3 73ba b83a 6bb8 2a02 92b8
00000170: 0afd 20bc 101e 0f39 52ee c738 cec8 4a38
00000180: 5c54 8239 5807 f838 c0db 1736 0d7c a639
00000190: 64e1 6138 8941 2338 c69c 8bb9 7e92 0c38
000001a0: ce40 0a3a 2507 323b 6d3d 603e 5e5a 54b9
000001b0: 0f67 9f3c aacf eabe b00b 023a db36 02bd
000001c0: e1be 16b8 6abd 6bb8 15c8 87b8 d359 f537
000001d0: fb33 2838 4a10 65b9 179c d3b8 2f22 33b9
000001e0: 44f6 0b39 490e 2fbc 1811 fb37 3887 2038
000001f0: 32b8 91bc 0260 8338 5342 1339 4017 a736
00000200: e806 a1b8 32ea 5d38 f897 4939 33b8 a738
00000210: de83 b939 e620 0f39 7c29 6ab9 6055 61b8
00000220: 2b52 0439 57dd 9738 1ea6 a937 0ca8 8d38
00000230: f076 2038 def4 4f38 25f5 d9b8 1442 5f39
00000240: 60c7 f036 955a 83bc cc4f 3c3a 5ce5 7bb8
00000250: cad5 98bc ec91 a837 e216 aab8 dd8f 1c38
00000260: c0b7 5e36 9222 40bb 145d 4c3a 44e8 1fba
00000270: 33c0 91bb 5305 00ba 2c36 1cb9 8c8b 10ba
00000280: 3ccb 32b9 f600 a339 1eae 3b39 a2d8 b039
00000290: af17 af3a 4466 2139 bc66 4c39 fc28 59b8
000002a0: 50c6 c5b8 9f8e 2fbe 4749 05bb 918d bfbc
000002b0: 3ff9 1d3e 1941 35b9 b6a7 ce39 b823 57ba
000002c0: 2429 dc38 e70d 01b8 1e94 1e39 a4c2 5838
000002d0: 8aac d336 2041 0238 9cf9 8238 cca3 df37
000002e0: c607 1838 ec87 ec38 0c9e 4c39 02dd ca38
000002f0: 87e5 0737 6037 61b8 f0f3 6437 48e1 77b7
00000300: 0635 7e38 ec65 84b9 766e fd38 74d9 2c37
00000310: 9901 38ba 108b 9737 6f39 2939 ee86 3f39
00000320: 8495 8538 a413 1f37 b8f9 96b7 6fc4 7cb9
00000330: 961d 7238 729b 33b8 7424 3bb9 0357 27b8
00000340: ac5b 1fb7 1cd0 78b7 7214 5536 d025 8339
00000350: d4ee 70b8 3a79 df38 acee 51b9 8369 13b8
00000360: bffb a239 9553 453c da1b 2c3b ddde cb3e
00000370: fa38 963b 385e 8dbd be25 823f 7900 80bd
00000380: 8d4e 0139 bcb7 abb8 9cec 69b8 9c5b 9cb8
00000390: 345a 30b8 bf49 10b9 a761 db38 6715 01b8
000003a0: 660e c93a d8f0 be3e 40b4 aebe 0c94 7d3e
000003b0: ccdb 9ebe f3f4 a2ba a664 d039 56d3 a03d
000003c0: 5ab8 f938 76dc 1739 c824 f8b7 a131 89b9
000003d0: 3768 9538 c418 f6b8 f0a1 af38 53b4 5639
000003e0: 2437 02b9 e6fc c9b7 b08b d9b6 2051 5937
000003f0: fa8f 14bb 7c2b 2538 655b 37b9 0bb0 7db8

bias f4 [64]
-0.00020984151 -0.00080943544 -0.00014588439 -0.000107568885 0.0011485479 -0.0016804063 -0.00093006523 -0.00014277172
0.00019775426 0.00038143495 0.00013774326 -7.752675e-05 0.000118903314 -0.00014503175 0.00011533935 -0.0001578336
1.468938e-05 -5.0474366e-05 9.978978e-05 3.526741e-05 -7.88728e-06 -0.00017172878 6.3899824e-05 -1.5450256e-05
-0.00045249116 8.8477704e-05 -4.657382e-05 -0.00043815537 -0.000159964 0.00024601247 0.00019624626 -1.8580511e-05
8.725298e-05 -0.0010499938 -0.00018553002 -0.00016313078 -0.0001941722 3.4331373e-05 -0.00015518416 0.00015424713
-0.00030793846 4.5338278e-05 0.0025079749 -3.851544e-05 0.00127014 -0.00021794662 2.9353681e-05 0.00047991142
0.00013119208 4.4361812e-05 1.7215916e-05 0.00019308069 -0.00029259102 0.00047836674 -0.0011063062 -3.3221386e-05
0.0002419964 -1.9034349e-05 0.00016781504 -7.648072e-05 -0.0012784845 0.0014141747 8.492671e-05 -0.0014452906
00000000: e708 5cb9 4b30 54ba 8bf8 18b9 9b96 e1b8
00000010: df8a 963a 1441 dcba 9fcf 73ba feb4 15b9
00000020: 415c 4f39 55fb c739 2d6f 1039 db95 a2b8
00000030: bb5b f938 aa13 18b9 58e2 f138 2280 25b9
00000040: 6872 7637 70b4 53b8 3b46 d138 18ec 1338
00000050: 9c53 04b7 1812 34b9 f501 8638 2c9b 81b7
00000060: 563c edb9 1b8d b938 4258 43b8 38b8 e5b9
00000070: 02bc 27b9 3cfb 8039 74c7 4d39 58dd 9bb7
00000080: 96fb b638 f29f 89ba d68a 42b9 160e 2bb9
00000090: b49a 4bb9 08ff 0f38 eeb8 22b9 66bd 2139
000000a0: cd72 a1b9 9b29 3e38 d65c 243b a48b 21b8
000000b0: d47a a63a 9a88 64b9 8d3c f637 9f9c fb39
000000c0: 9b90 0939 2211 3a38 e66a 9037 b475 4a39
000000d0: e766 99b9 4ccd fa39 7a01 91ba 3157 0bb8
000000e0: 6ac0 7d39 f4ab 9fb7 82f7 2f39 4664 a0b8
000000f0: d292 a7ba d45b b93a ae1a b238 e86f bdba

weight f4 [64, 64]
0.00029373914 -0.0001551246 0.00015133 0.00013884596 -8.714472e-05 0.00029642013 2.2851735e-05 -2.3986837e-05
2.2500019e-05 -1.5096844e-05 7.6901444e-05 -2.167394e-06 -7.54085e-05 0.0001663102 5.1396746e-06 -0.00015127748
1.9088366e-06 5.9241174e-05 0.00016553896 0.00012600452 -0.00018704844 4.870585e-05 -2.5317022e-06 -3.7498787e-05
0.00027600065 0.00026141916 0.00022216831 -3.2214783e-05 0.00010187923 -4.6237008e-05 -0.00014186955 2.001295e-06
0.00023787902 -0.00013940911 -9.846303e-05 0.00045397237 5.2980737e-05 6.3162115e-06 7.868477e-05 -9.579891e-06
3.5275225e-06 -4.536684e-06 0.00021883677 0.0002819862 -5.62049e-06 0.00022604014 8.72297e-05 -0.000118015
8.02915e-05 3.4358978e-05 -1.569395e-06 0.00010097805 8.052106e-05 1.7235856e-05 -0.0002891707 -0.00018507824
7.302102e-05 0.00019499235 -8.1382e-05 0.00029664137 0.00015254886 -1.697481e-05 -0.00013728326 0.0002349033
-0.0001542347 0.000106530424 -1.741368e-05 -0.00011944486 9.929804e-05 -0.00012579953 8.176496e-05 1.1013661e-05
8.97116e-05 0.00020833919 -4.5429166e-05 1.755252e-07 7.405452e-05 -0.0001958383 9.046336e-06 0.00022096952
5.852434e-05 -0.0002548068 1.6708927e-05 -0.0003228622 -0.00024092218 2.6103387e-05 -0.0002797565 -6.949881e-05
3.3533506e-06 -4.0535953e-05 -0.00035404795 -5.6055607e-05 -4.3924694e-05 -4.865033e-05 -6.5564527e-06 -1.6618738e-05
-3.6169753e-05 -9.308469e-05 1.3800698e-05 -4.1741714e-05 8.5735745e-05 0.00012760662 -0.00031930365 0.00037809968
-6.746585e-05 1.3778339e-05 -3.019176e-05 -0.00023547257 -6.683193e-05 -5.2464136e-05 0.00013045922 -8.221956e-05
0.000101190264 6.397596e-05 -4.5637844e-06 9.915295e-05 0.00017505618 -0.00012913311 -0.00038938283 -0.00013712005
-9.1430804e-05 -0.0001809086 9.576723e-05 -1.0880089e-05 0.00030653222 -0.00022278543 -7.895723e-05 8.0135505e-05
4.6980134e-05 7.6354845e-05 4.7198053e-05 -4.7615067e-05 -8.647323e-06 -0.00018281129 0.00012612704 -6.2521416e-05
0.00012992689 -0.00012152865 -1.4770892e-05 1.2693072e-05 3.5715828e-05 -0.00013153118 -9.0259724e-05 9.641577e-05
-9.062851e-05 -0.00021385314 3.6526133e-05 -8.0981816e-05 0.00014085803 7.0301314e-05 8.93092e-05 -4.438285e-06
0.00013505846 1.0021027e-05 -0.00014147806 -2.9920462e-05 -0.00021125471 0.00028543663 -5.7856832e-05 -0.000110146924
-0.00012068998 7.549183e-05 0.0001975348 8.708882e-05 0.00021660951 -0.00024077749 1.4885751e-05 0.00027799435
3.9793085e-06 0.00018011019 -0.00018035139 -4.515949e-05 -0.00012381608 -0.000114293645 3.722551e-06 -6.0697042e-05
4.4218636e-05 7.552207e-05 -0.00020652988 -0.00022689164 -2.916895e-05 0.00019588145 -0.00013186746 -5.438973e-05
0.00012037145 -2.460909e-06 0.00018420635 -0.00020599566 9.1355505e-05 -0.00017451515 1.0922058e-06 2.4313194e-05
-2.4789188e-08 -4.6625646e-06 2.1999276e-06 -6.134116e-05 2.7368937e-05 8.768415e-05 0.00017505475 -0.00046752178
-8.146674e-05 0.000108188884 3.623822e-05 -2.0592008e-05 -6.4754255e-05 -0.0003231154 -0.00011505876 5.808883e-05
0.00010307299 -8.2117185e-07 1.3986702e-05 -7.818764e-05 0.0001180544 -8.437841e-06 6.297331e-05 -5.123455e-05
0.00013254138 0.00010913919 -0.00023927802 0.00014348837 -6.3484586e-06 7.876454e-05 0.0001204362 0.00031384343
0.00028586222 -3.184432e-05 -3.7655278e-05 9.0577334e-05 -0.00013708489 0.00020674444 -2.9105566e-05 0.00012210765
-0.00013542839 -7.4761185e-05 1.4044883e-05 -0.000263382 4.8059264e-05 -0.000116182164 7.655038e-05 -0.00017989721
-0.00017443372 0.0001606453 -0.0001982991 0.00010155944 -0.000114745475 -7.254333e-05 -8.778172e-05 9.26313e-05
-0.00017233724 8.674791e-05 0.000103562736 -0.00027184671 -0.00014149444 0.00016117012 5.8822152e-05 7.910811e-05
00000000: 0001 9a39 f1a8 22b9 56ae 1e39 2e97 1139
00000010: 77c1 b6b8 d668 9b39 bab1 bf37 5737 c9b7
00000020: 6cbe bc37 7448 7db7 2646 a138 8c73 11b6
00000030: a124 9eb8 8e63 2e39 7875 ac36 3da0 1eb9
00000040: 9019 0036 ba79 7838 8794 2d39 1520 0439
00000050: 6f22 44b9 8249 4c38 50e6 29b6 0448 1db8
00000060: 2eb4 9039 160f 8939 daf5 6839 5c1e 07b8
00000070: ffa7 d538 9cee 41b8 d1c2 14b9 fc4d 0636
00000080: 2a6f 7939 592e 12b9 f07d ceb8 2403 ee39
00000090: a237 5e38 d8ef d336 9003 a538 52b9 20b7
000000a0: 60ba 6c36 d239 98b6 8c77 6539 8cd7 9339
000000b0: a497 bcb6 3005 6d39 17ef b638 d27e f7b8
000000c0: 2c62 a838 ac1c 1038 00a4 d2b5 2ec4 d338
000000d0: 6add a838 b895 9037 d69b 97b9 9011 42b9
000000e0: dd22 9938 dc76 4c39 a1ab aab8 8886 9b39
000000f0: 86f5 1f39 2065 8eb7 b2f3 0fb9 6050 7639
00000100: 10ba 21b9 1669 df38 9813 92b7 797e fab8
00000110: 3b3e d038 0ee9 03b9 3b79 ab38 50c7 3837
00000120: 8c23 bc38 a075 5a39 328b 3eb8 0078 3c34
00000130: b84d 9b38 f259 4db9 b8c5 1737 0eb4 6739
00000140: 0878 7538 9797 85b9 262a 8c37 d545 a9b9
00000150: 0ea0 7cb9 99f8 da37 48ac 92b9 e4bf 91b8
00000160: 200a 6136 2605 2ab8 839f b9b9 401d 6bb8
00000170: c83b 38b8 e50d 4cb8 80ff dbb6 7868 8bb7
00000180: fab4 17b8 7636 c3b8 8c89 6737 d313 2fb8
00000190: 07cd b338 24ce 0539 3668 a7b9 ae3b c639
000001a0: 747c 8db8 8429 6737 5044 fdb7 30e9 76b9
000001b0: 1f28 8cb8 f00c 5cb8 e1cb 0839 4a6d acb8
000001c0: 1c36 d438 d52a 8638 9c22 99b6 56f0 cf38
000001d0: 498f 3739 e867 07b9 1426 ccb9 e2c7 0fb9
000001e0: 8abe bfb8 48b2 3db9 a4d6 c838 a089 36b7
000001f0: 0fb6 a039 829b 69b9 d795 a5b8 6c0e a838
00000200: 890c 4538 b220 a038 86f6 4538 4ab6 47b8
00000210: f813 11b7 08b1 3fb9 f840 0439 ee1d 83b8
00000220: fc3c 0839 32dd feb8 80d0 77b7 54f4 5437
00000230: 94cd 1538 a2eb 09b9 d249 bdb8 d332 ca38
00000240: d00f beb8 c43d 60b9 a333 1938 c8d4 a9b8
00000250: 4ab3 1339 bb6e 9338 834b bb38 94ec 94b6
00000260: 7b9e 0d39 fc1f 2837 ba59 14b9 b4fd fab7
00000270: 4184 5db9 a8a6 9539 4dab 72b8 aefe e6b8
00000280: f11a fdb8 5e51 9e38 5821 4f39 74a3 b638
00000290: ac21 6339 3779 7cb9 d0bd 7937 c5bf 9139
000002a0: 0086 8536 f6db 3c39 b51c 3db9 a269 3db8
000002b0: a0d4 01b9 efb0 efb8 f0d0 7936 f494 7eb8
000002c0: 6677 3938 9a61 9e38 f18f 58b9 c3e9 6db9
000002d0: d8af f4b7 8765 4d39 e745 0ab9 8720 64b8
000002e0: ee6f fc38 1826 25b6 8427 4139 8a00 58b9
000002f0: 1d96 bf38 0efe 36b9 e897 9235 30f4 cb37
00000300: 00f0 d4b2 2073 9cb6 78a2 1336 49a4 80b8
00000310: 5896 e537 12e3 b738 e78e 3739 b61d f5b9
00000320: 1fd9 aab8 77e3 e238 7efe 1738 00bd acb7
00000330: adcc 87b8 d167 a9b9 b44b f1b8 68a4 7338
00000340: e428 d838 806e 5cb5 6da8 6a37 abf8 a3b8
00000350: f993 f738 4090 0db7 8a10 8438 aee4 56b8
00000360: cefa 0a39 a8e1 e438 b4e6 7ab9 5e75 1639
00000370: d804 d5b6 642e a538 b192 fc38 5a8b a439
00000380: c7df 9539 9490 05b8 0cf0 1db8 56f4 bd38
00000390: 72be 0fb9 8ac9 5839 ba27 f4b7 060a 0039
000003a0: c801 0eb9 1bc9 9cb8 50a2 6b37 8916 8ab9
000003b0: 3e93 4938 d3a6 f3b8 ac89 a038 caa2 3cb9
000003c0: 32e8 36b9 e572 2839 82ee 4fb9 4ffc d438
000003d0: 82a3 f0b8 6722 98b8 7417 b8b8 0d43 c238
000003e0: 6db5 34b9 6eec b538 d22f d938 a686 8eb9
000003f0: 205e 14b9 c6ff 2839 ceb7 7638 d8e6 a538

bias f4 [64]
-0.0001444933 -0.0001629261 -1.7225899e-05 2.9966614e-05 9.741363e-05 -3.6507372e-05 9.53905e-05 0.0001367804
-0.00014671034 0.00023322599 7.1161696e-05 -0.00039793667 -0.00016127262 -0.00010846498 5.4766766e-05 9.2989416e-05
4.1911044e-05 0.0003939952 -0.0016207501 0.0001442004 6.44671e-05 -0.0001374034 0.00035862252 0.00023727135
0.00012644334 -0.0001962235 -4.7460926e-06 0.00011746696 0.00010587764 0.00015490351 0.00012498545 0.0003735675
0.00011722694 5.84792e-06 4.1076208e-05 -5.583346e-05 0.0008636661 -0.00015182748 0.00037707598 0.00014702379
4.881161e-05 -0.00020736147 0.0001765414 -7.790589e-05 -2.9293267e-05 -7.705783e-05 -8.2728104e-05 0.74570864
0.000119068114 0.00016074805 -0.00018674457 5.9751117e-05 -0.6812858 -0.00034963875 -2.093365e-05 0.00012269092
-8.97798e-05 -1.1531069e-05 -0.00017113137 -5.3227377e-05 7.2594645e-05 0.0013702053 -0.00021720762 -0.00079734845
00000000: 2083 17b9 24d7 2ab9 5680 90b7 d060 fb37
00000010: 8b4a cc38 7e1f 19b8 620c c838 b66c 0f39
00000020: 42d6 19b9 208e 7439 a53c 9538 28a2 d0b9
00000030: 4a1b 29b9 b177 e3b8 5eb5 6538 5003 c338
00000040: a4c9 2f38 2491 ce39 596f d4ba 8034 1739
00000050: 8332 8738 f213 10b9 8005 bc39 0bcc 7839
00000060: e095 0439 58c1 4db9 a040 9fb6 9858 f638
00000070: a00a de38 986d 2239 870e 0339 62db c339
00000080: bcd7 f538 4039 c436 3e49 2c38 b92e 6ab8
00000090: a767 623a e133 1fb9 48b2 c539 662a 1a39
000000a0: 11bb 4c38 2c6f 59b9 f91d 3939 6861 a3b8
000000b0: d0ba f5b7 1c9a a1b8 507e adb8 c3e6 3e3f
000000c0: 35b4 f938 7a8e 2839 ddd0 43b9 469d 7a38
000000d0: bf68 2ebf b84f b7b9 ac9a afb7 98a6 0039
000000e0: 2a48 bcb8 9075 41b7 ba71 33b9 7640 5fb8
000000f0: f43d 9838 7698 b33a 3ac2 63b9 2605 51ba

weight f4 [1, 64]
0.00012470206 -0.00011078371 -3.1887204e-05 -3.1378095e-05 -9.0919675e-05 0.00034038676 0.00012983414 0.00048459994
-8.6716085e-05 0.4318474 -2.7256043e-05 1.2777061 3.4465447e-05 0.0001201289 -0.94123286 7.979853e-05
2.8835428e-05 -0.00027814927 1.67723 0.00012462282 0.00013107827 -0.000229235 5.511049e-05 0.00017013028
7.759037e-05 2.0468e-05 -0.00034128944 -0.00018475081 0.00015731675 -0.00010648463 1.0595392 0.00031742925
-1.3209705e-05 1.2542769 -6.570288e-05 7.469606e-05 -1.2486295 -7.6189484e-05 -1.2695863 0.0003102597
-3.4487253e-05 0.00020139152 -0.000120616605 2.2414955e-05 0.000107213964 0.00018290186 4.055748e-05 -1.9097017
6.803667e-05 -0.0001926027 -9.6219774e-05 -0.00010754075 1.8829045 -1.6302781 0.00022235383 3.52622e-06
-1.9291343e-05 -0.00010207913 0.000118579526 -5.809934e-05 7.328943e-05 -0.9403773 -0.0003472392 0.966258
00000000: 74c2 0239 8d54 e8b8 a0be 05b8 f99b 03b8
00000010: 21ac beb8 f075 b239 1624 0839 e711 fe39
00000020: 58db b5b8 1a1b dd3e e8a3 e4b7 e08b a33f
00000030: fe8e 1038 b6ed fb38 a3f4 70bf 8259 a738
00000040: 9ce3 f137 90d4 91b9 79af d63f 2fad 0239
00000050: 0e72 0939 cd5e 70b9 7026 6738 0065 3239
00000060: 03b8 a238 b2b2 ab37 18ef b2b9 abb9 41b9
00000070: 65f5 2439 8050 dfb8 fb9e 873f a26c a639
00000080: 409f 5db7 258c a03f f7c9 89b8 24a6 9c38
00000090: 17d3 9fbf ebc7 9fb8 ce81 a2bf 5aaa a239
000000a0: 68a6 10b8 a02c 5339 8cf3 fcb8 c007 bc37
000000b0: 0fd8 e038 58c9 3f39 431c 2a38 1b71 f4bf
000000c0: e9ae 8e38 65f5 49b9 99c9 c9b8 8087 e1b8
000000d0: 0403 f13f f4ac d0bf a727 6939 00a4 6c36
000000e0: d8d3 a1b7 5113 d6b8 e6ad f838 b1af 73b8
000000f0: f7b2 9938 91bc 70bf a80d b6b9 af5c 773f
